node {
  name: "Const"
  op: "Const"
  device: "/device:CPU:0"
  attr {
    key: "_output_shapes"
    value {
      list {
        shape {
        }
      }
    }
  }
  attr {
    key: "dtype"
    value {
      type: DT_STRING
    }
  }
  attr {
    key: "value"
    value {
      tensor {
        dtype: DT_STRING
        tensor_shape {
        }
        string_val: "/home/michael/Dropbox/Data Comp/pilotCNN/train.tfrecord"
      }
    }
  }
}
node {
  name: "flat_filenames/shape"
  op: "Const"
  device: "/device:CPU:0"
  attr {
    key: "_output_shapes"
    value {
      list {
        shape {
          dim {
            size: 1
          }
        }
      }
    }
  }
  attr {
    key: "dtype"
    value {
      type: DT_INT32
    }
  }
  attr {
    key: "value"
    value {
      tensor {
        dtype: DT_INT32
        tensor_shape {
          dim {
            size: 1
          }
        }
        int_val: -1
      }
    }
  }
}
node {
  name: "flat_filenames"
  op: "Reshape"
  input: "Const"
  input: "flat_filenames/shape"
  device: "/device:CPU:0"
  attr {
    key: "T"
    value {
      type: DT_STRING
    }
  }
  attr {
    key: "Tshape"
    value {
      type: DT_INT32
    }
  }
  attr {
    key: "_output_shapes"
    value {
      list {
        shape {
          dim {
            size: 1
          }
        }
      }
    }
  }
}
node {
  name: "buffer_size"
  op: "Const"
  device: "/device:CPU:0"
  attr {
    key: "_output_shapes"
    value {
      list {
        shape {
        }
      }
    }
  }
  attr {
    key: "dtype"
    value {
      type: DT_INT64
    }
  }
  attr {
    key: "value"
    value {
      tensor {
        dtype: DT_INT64
        tensor_shape {
        }
        int64_val: 3
      }
    }
  }
}
node {
  name: "buffer_size_1"
  op: "Const"
  device: "/device:CPU:0"
  attr {
    key: "_output_shapes"
    value {
      list {
        shape {
        }
      }
    }
  }
  attr {
    key: "dtype"
    value {
      type: DT_INT64
    }
  }
  attr {
    key: "value"
    value {
      tensor {
        dtype: DT_INT64
        tensor_shape {
        }
        int64_val: 25000
      }
    }
  }
}
node {
  name: "seed"
  op: "Const"
  device: "/device:CPU:0"
  attr {
    key: "_output_shapes"
    value {
      list {
        shape {
        }
      }
    }
  }
  attr {
    key: "dtype"
    value {
      type: DT_INT64
    }
  }
  attr {
    key: "value"
    value {
      tensor {
        dtype: DT_INT64
        tensor_shape {
        }
        int64_val: 0
      }
    }
  }
}
node {
  name: "seed2"
  op: "Const"
  device: "/device:CPU:0"
  attr {
    key: "_output_shapes"
    value {
      list {
        shape {
        }
      }
    }
  }
  attr {
    key: "dtype"
    value {
      type: DT_INT64
    }
  }
  attr {
    key: "value"
    value {
      tensor {
        dtype: DT_INT64
        tensor_shape {
        }
        int64_val: 0
      }
    }
  }
}
node {
  name: "count"
  op: "Const"
  device: "/device:CPU:0"
  attr {
    key: "_output_shapes"
    value {
      list {
        shape {
        }
      }
    }
  }
  attr {
    key: "dtype"
    value {
      type: DT_INT64
    }
  }
  attr {
    key: "value"
    value {
      tensor {
        dtype: DT_INT64
        tensor_shape {
        }
        int64_val: 20
      }
    }
  }
}
node {
  name: "batch_size"
  op: "Const"
  device: "/device:CPU:0"
  attr {
    key: "_output_shapes"
    value {
      list {
        shape {
        }
      }
    }
  }
  attr {
    key: "dtype"
    value {
      type: DT_INT64
    }
  }
  attr {
    key: "value"
    value {
      tensor {
        dtype: DT_INT64
        tensor_shape {
        }
        int64_val: 3
      }
    }
  }
}
node {
  name: "num_parallel_calls"
  op: "Const"
  device: "/device:CPU:0"
  attr {
    key: "_output_shapes"
    value {
      list {
        shape {
        }
      }
    }
  }
  attr {
    key: "dtype"
    value {
      type: DT_INT64
    }
  }
  attr {
    key: "value"
    value {
      tensor {
        dtype: DT_INT64
        tensor_shape {
        }
        int64_val: 3
      }
    }
  }
}
node {
  name: "drop_remainder"
  op: "Const"
  device: "/device:CPU:0"
  attr {
    key: "_output_shapes"
    value {
      list {
        shape {
        }
      }
    }
  }
  attr {
    key: "dtype"
    value {
      type: DT_BOOL
    }
  }
  attr {
    key: "value"
    value {
      tensor {
        dtype: DT_BOOL
        tensor_shape {
        }
        bool_val: false
      }
    }
  }
}
node {
  name: "buffer_size_2"
  op: "Const"
  device: "/device:CPU:0"
  attr {
    key: "_output_shapes"
    value {
      list {
        shape {
        }
      }
    }
  }
  attr {
    key: "dtype"
    value {
      type: DT_INT64
    }
  }
  attr {
    key: "value"
    value {
      tensor {
        dtype: DT_INT64
        tensor_shape {
        }
        int64_val: -1
      }
    }
  }
}
node {
  name: "IteratorV2"
  op: "IteratorV2"
  device: "/device:GPU:0"
  attr {
    key: "_output_shapes"
    value {
      list {
        shape {
        }
      }
    }
  }
  attr {
    key: "container"
    value {
      s: ""
    }
  }
  attr {
    key: "output_shapes"
    value {
      list {
        shape {
          dim {
            size: -1
          }
          dim {
            size: 512
          }
          dim {
            size: 1
          }
          dim {
            size: 512
          }
        }
        shape {
          dim {
            size: -1
          }
          dim {
            size: 4
          }
        }
      }
    }
  }
  attr {
    key: "output_types"
    value {
      list {
        type: DT_FLOAT
        type: DT_INT32
      }
    }
  }
  attr {
    key: "shared_name"
    value {
      s: ""
    }
  }
}
node {
  name: "IteratorToStringHandle"
  op: "IteratorToStringHandle"
  input: "IteratorV2"
  device: "/device:GPU:0"
  attr {
    key: "_output_shapes"
    value {
      list {
        shape {
        }
      }
    }
  }
}
node {
  name: "ExperimentalIteratorGetDevice"
  op: "ExperimentalIteratorGetDevice"
  input: "IteratorV2"
  device: "/device:GPU:0"
  attr {
    key: "_output_shapes"
    value {
      list {
        shape {
        }
      }
    }
  }
}
node {
  name: "ExperimentalFunctionBufferingResource"
  op: "ExperimentalFunctionBufferingResource"
  input: "IteratorToStringHandle"
  input: "ExperimentalIteratorGetDevice"
  device: "/device:GPU:0"
  attr {
    key: "_output_shapes"
    value {
      list {
        shape {
          unknown_rank: true
        }
      }
    }
  }
  attr {
    key: "buffer_size"
    value {
      i: 1
    }
  }
  attr {
    key: "container"
    value {
      s: ""
    }
  }
  attr {
    key: "f"
    value {
      func {
        name: "_prefetch_fn_hYCgXauBi0A"
      }
    }
  }
  attr {
    key: "output_types"
    value {
      list {
        type: DT_FLOAT
        type: DT_INT32
      }
    }
  }
  attr {
    key: "shared_name"
    value {
      s: ""
    }
  }
}
node {
  name: "ExperimentalFunctionBufferingResourceReset"
  op: "ExperimentalFunctionBufferingResourceReset"
  input: "ExperimentalFunctionBufferingResource"
  device: "/device:GPU:0"
}
node {
  name: "TensorSliceDataset"
  op: "TensorSliceDataset"
  input: "flat_filenames"
  input: "^ExperimentalFunctionBufferingResourceReset"
  device: "/device:GPU:0"
  attr {
    key: "Toutput_types"
    value {
      list {
        type: DT_STRING
      }
    }
  }
  attr {
    key: "_class"
    value {
      list {
        s: "loc:@IteratorV2"
      }
    }
  }
  attr {
    key: "_output_shapes"
    value {
      list {
        shape {
        }
      }
    }
  }
  attr {
    key: "output_shapes"
    value {
      list {
        shape {
        }
      }
    }
  }
}
node {
  name: "FlatMapDataset"
  op: "FlatMapDataset"
  input: "TensorSliceDataset"
  device: "/device:GPU:0"
  attr {
    key: "Targuments"
    value {
      list {
      }
    }
  }
  attr {
    key: "_class"
    value {
      list {
        s: "loc:@IteratorV2"
      }
    }
  }
  attr {
    key: "_output_shapes"
    value {
      list {
        shape {
        }
      }
    }
  }
  attr {
    key: "f"
    value {
      func {
        name: "tf_data_structured_function_wrapper_52oRgbbAY9U"
      }
    }
  }
  attr {
    key: "output_shapes"
    value {
      list {
        shape {
        }
      }
    }
  }
  attr {
    key: "output_types"
    value {
      list {
        type: DT_STRING
      }
    }
  }
}
node {
  name: "PrefetchDataset"
  op: "PrefetchDataset"
  input: "FlatMapDataset"
  input: "buffer_size"
  device: "/device:GPU:0"
  attr {
    key: "_class"
    value {
      list {
        s: "loc:@IteratorV2"
      }
    }
  }
  attr {
    key: "_output_shapes"
    value {
      list {
        shape {
        }
      }
    }
  }
  attr {
    key: "output_shapes"
    value {
      list {
        shape {
        }
      }
    }
  }
  attr {
    key: "output_types"
    value {
      list {
        type: DT_STRING
      }
    }
  }
}
node {
  name: "ShuffleDataset"
  op: "ShuffleDataset"
  input: "PrefetchDataset"
  input: "buffer_size_1"
  input: "seed"
  input: "seed2"
  device: "/device:GPU:0"
  attr {
    key: "_class"
    value {
      list {
        s: "loc:@IteratorV2"
      }
    }
  }
  attr {
    key: "_output_shapes"
    value {
      list {
        shape {
        }
      }
    }
  }
  attr {
    key: "output_shapes"
    value {
      list {
        shape {
        }
      }
    }
  }
  attr {
    key: "output_types"
    value {
      list {
        type: DT_STRING
      }
    }
  }
  attr {
    key: "reshuffle_each_iteration"
    value {
      b: true
    }
  }
}
node {
  name: "RepeatDataset"
  op: "RepeatDataset"
  input: "ShuffleDataset"
  input: "count"
  device: "/device:GPU:0"
  attr {
    key: "_class"
    value {
      list {
        s: "loc:@IteratorV2"
      }
    }
  }
  attr {
    key: "_output_shapes"
    value {
      list {
        shape {
        }
      }
    }
  }
  attr {
    key: "output_shapes"
    value {
      list {
        shape {
        }
      }
    }
  }
  attr {
    key: "output_types"
    value {
      list {
        type: DT_STRING
      }
    }
  }
}
node {
  name: "MapAndBatchDatasetV2"
  op: "MapAndBatchDatasetV2"
  input: "RepeatDataset"
  input: "batch_size"
  input: "num_parallel_calls"
  input: "drop_remainder"
  device: "/device:GPU:0"
  attr {
    key: "Targuments"
    value {
      list {
      }
    }
  }
  attr {
    key: "_class"
    value {
      list {
        s: "loc:@IteratorV2"
      }
    }
  }
  attr {
    key: "_output_shapes"
    value {
      list {
        shape {
        }
      }
    }
  }
  attr {
    key: "f"
    value {
      func {
        name: "tf_data_structured_function_wrapper_9nCWKPbqe6Q"
      }
    }
  }
  attr {
    key: "output_shapes"
    value {
      list {
        shape {
          dim {
            size: -1
          }
          dim {
            size: 512
          }
          dim {
            size: 1
          }
          dim {
            size: 512
          }
        }
        shape {
          dim {
            size: -1
          }
          dim {
            size: 4
          }
        }
      }
    }
  }
  attr {
    key: "output_types"
    value {
      list {
        type: DT_FLOAT
        type: DT_INT32
      }
    }
  }
}
node {
  name: "PrefetchDataset_1"
  op: "PrefetchDataset"
  input: "MapAndBatchDatasetV2"
  input: "buffer_size_2"
  device: "/device:GPU:0"
  attr {
    key: "_class"
    value {
      list {
        s: "loc:@IteratorV2"
      }
    }
  }
  attr {
    key: "_output_shapes"
    value {
      list {
        shape {
        }
      }
    }
  }
  attr {
    key: "output_shapes"
    value {
      list {
        shape {
          dim {
            size: -1
          }
          dim {
            size: 512
          }
          dim {
            size: 1
          }
          dim {
            size: 512
          }
        }
        shape {
          dim {
            size: -1
          }
          dim {
            size: 4
          }
        }
      }
    }
  }
  attr {
    key: "output_types"
    value {
      list {
        type: DT_FLOAT
        type: DT_INT32
      }
    }
  }
}
node {
  name: "make_initializer"
  op: "MakeIterator"
  input: "PrefetchDataset_1"
  input: "IteratorV2"
  device: "/device:GPU:0"
  attr {
    key: "_class"
    value {
      list {
        s: "loc:@IteratorV2"
      }
    }
  }
}
node {
  name: "global_step/Initializer/zeros"
  op: "Const"
  attr {
    key: "_class"
    value {
      list {
        s: "loc:@global_step"
      }
    }
  }
  attr {
    key: "_output_shapes"
    value {
      list {
        shape {
        }
      }
    }
  }
  attr {
    key: "dtype"
    value {
      type: DT_INT64
    }
  }
  attr {
    key: "value"
    value {
      tensor {
        dtype: DT_INT64
        tensor_shape {
        }
        int64_val: 0
      }
    }
  }
}
node {
  name: "global_step"
  op: "VarHandleOp"
  device: "/device:GPU:0"
  attr {
    key: "_class"
    value {
      list {
        s: "loc:@global_step"
      }
    }
  }
  attr {
    key: "_output_shapes"
    value {
      list {
        shape {
        }
      }
    }
  }
  attr {
    key: "container"
    value {
      s: ""
    }
  }
  attr {
    key: "dtype"
    value {
      type: DT_INT64
    }
  }
  attr {
    key: "shape"
    value {
      shape {
      }
    }
  }
  attr {
    key: "shared_name"
    value {
      s: "global_step"
    }
  }
}
node {
  name: "global_step/IsInitialized/VarIsInitializedOp"
  op: "VarIsInitializedOp"
  input: "global_step"
  device: "/device:GPU:0"
  attr {
    key: "_output_shapes"
    value {
      list {
        shape {
        }
      }
    }
  }
}
node {
  name: "global_step/Assign"
  op: "AssignVariableOp"
  input: "global_step"
  input: "global_step/Initializer/zeros"
  device: "/device:GPU:0"
  attr {
    key: "_class"
    value {
      list {
        s: "loc:@global_step"
      }
    }
  }
  attr {
    key: "dtype"
    value {
      type: DT_INT64
    }
  }
}
node {
  name: "global_step/Read/ReadVariableOp"
  op: "ReadVariableOp"
  input: "global_step"
  device: "/device:GPU:0"
  attr {
    key: "_class"
    value {
      list {
        s: "loc:@global_step"
      }
    }
  }
  attr {
    key: "_output_shapes"
    value {
      list {
        shape {
        }
      }
    }
  }
  attr {
    key: "dtype"
    value {
      type: DT_INT64
    }
  }
}
node {
  name: "Identity/ReadVariableOp"
  op: "ReadVariableOp"
  input: "global_step"
  device: "/device:GPU:0"
  attr {
    key: "_output_shapes"
    value {
      list {
        shape {
        }
      }
    }
  }
  attr {
    key: "dtype"
    value {
      type: DT_INT64
    }
  }
}
node {
  name: "Identity"
  op: "Identity"
  input: "Identity/ReadVariableOp"
  device: "/device:GPU:0"
  attr {
    key: "T"
    value {
      type: DT_INT64
    }
  }
  attr {
    key: "_output_shapes"
    value {
      list {
        shape {
        }
      }
    }
  }
}
node {
  name: "ExperimentalFunctionBufferingResourceGetNext"
  op: "ExperimentalFunctionBufferingResourceGetNext"
  input: "ExperimentalFunctionBufferingResource"
  device: "/device:GPU:0"
  attr {
    key: "_output_shapes"
    value {
      list {
        shape {
          dim {
            size: -1
          }
          dim {
            size: 512
          }
          dim {
            size: 1
          }
          dim {
            size: 512
          }
        }
        shape {
          dim {
            size: -1
          }
          dim {
            size: 4
          }
        }
      }
    }
  }
  attr {
    key: "output_types"
    value {
      list {
        type: DT_FLOAT
        type: DT_INT32
      }
    }
  }
}
node {
  name: "Reshape/shape"
  op: "Const"
  device: "/device:GPU:0"
  attr {
    key: "_output_shapes"
    value {
      list {
        shape {
          dim {
            size: 4
          }
        }
      }
    }
  }
  attr {
    key: "dtype"
    value {
      type: DT_INT32
    }
  }
  attr {
    key: "value"
    value {
      tensor {
        dtype: DT_INT32
        tensor_shape {
          dim {
            size: 4
          }
        }
        tensor_content: "\377\377\377\377\000\002\000\000\000\002\000\000\001\000\000\000"
      }
    }
  }
}
node {
  name: "Reshape"
  op: "Reshape"
  input: "ExperimentalFunctionBufferingResourceGetNext"
  input: "Reshape/shape"
  device: "/device:GPU:0"
  attr {
    key: "T"
    value {
      type: DT_FLOAT
    }
  }
  attr {
    key: "Tshape"
    value {
      type: DT_INT32
    }
  }
  attr {
    key: "_output_shapes"
    value {
      list {
        shape {
          dim {
            size: -1
          }
          dim {
            size: 512
          }
          dim {
            size: 512
          }
          dim {
            size: 1
          }
        }
      }
    }
  }
}
node {
  name: "images/tag"
  op: "Const"
  device: "/device:GPU:0"
  attr {
    key: "_output_shapes"
    value {
      list {
        shape {
        }
      }
    }
  }
  attr {
    key: "dtype"
    value {
      type: DT_STRING
    }
  }
  attr {
    key: "value"
    value {
      tensor {
        dtype: DT_STRING
        tensor_shape {
        }
        string_val: "images"
      }
    }
  }
}
node {
  name: "images"
  op: "ImageSummary"
  input: "images/tag"
  input: "Reshape"
  device: "/device:GPU:0"
  attr {
    key: "T"
    value {
      type: DT_FLOAT
    }
  }
  attr {
    key: "_output_shapes"
    value {
      list {
        shape {
        }
      }
    }
  }
  attr {
    key: "bad_color"
    value {
      tensor {
        dtype: DT_UINT8
        tensor_shape {
          dim {
            size: 4
          }
        }
        int_val: 255
        int_val: 0
        int_val: 0
        int_val: 255
      }
    }
  }
  attr {
    key: "max_images"
    value {
      i: 6
    }
  }
}
node {
  name: "resnet_model/transpose/perm"
  op: "Const"
  device: "/device:GPU:0"
  attr {
    key: "_output_shapes"
    value {
      list {
        shape {
          dim {
            size: 4
          }
        }
      }
    }
  }
  attr {
    key: "dtype"
    value {
      type: DT_INT32
    }
  }
  attr {
    key: "value"
    value {
      tensor {
        dtype: DT_INT32
        tensor_shape {
          dim {
            size: 4
          }
        }
        tensor_content: "\000\000\000\000\003\000\000\000\001\000\000\000\002\000\000\000"
      }
    }
  }
}
node {
  name: "resnet_model/transpose"
  op: "Transpose"
  input: "Reshape"
  input: "resnet_model/transpose/perm"
  device: "/device:GPU:0"
  attr {
    key: "T"
    value {
      type: DT_FLOAT
    }
  }
  attr {
    key: "Tperm"
    value {
      type: DT_INT32
    }
  }
  attr {
    key: "_output_shapes"
    value {
      list {
        shape {
          dim {
            size: -1
          }
          dim {
            size: 1
          }
          dim {
            size: 512
          }
          dim {
            size: 512
          }
        }
      }
    }
  }
}
node {
  name: "resnet_model/conv2d/kernel/Initializer/truncated_normal/shape"
  op: "Const"
  attr {
    key: "_class"
    value {
      list {
        s: "loc:@resnet_model/conv2d/kernel"
      }
    }
  }
  attr {
    key: "_output_shapes"
    value {
      list {
        shape {
          dim {
            size: 4
          }
        }
      }
    }
  }
  attr {
    key: "dtype"
    value {
      type: DT_INT32
    }
  }
  attr {
    key: "value"
    value {
      tensor {
        dtype: DT_INT32
        tensor_shape {
          dim {
            size: 4
          }
        }
        tensor_content: "\003\000\000\000\003\000\000\000\001\000\000\000\010\000\000\000"
      }
    }
  }
}
node {
  name: "resnet_model/conv2d/kernel/Initializer/truncated_normal/mean"
  op: "Const"
  attr {
    key: "_class"
    value {
      list {
        s: "loc:@resnet_model/conv2d/kernel"
      }
    }
  }
  attr {
    key: "_output_shapes"
    value {
      list {
        shape {
        }
      }
    }
  }
  attr {
    key: "dtype"
    value {
      type: DT_FLOAT
    }
  }
  attr {
    key: "value"
    value {
      tensor {
        dtype: DT_FLOAT
        tensor_shape {
        }
        float_val: 0.0
      }
    }
  }
}
node {
  name: "resnet_model/conv2d/kernel/Initializer/truncated_normal/stddev"
  op: "Const"
  attr {
    key: "_class"
    value {
      list {
        s: "loc:@resnet_model/conv2d/kernel"
      }
    }
  }
  attr {
    key: "_output_shapes"
    value {
      list {
        shape {
        }
      }
    }
  }
  attr {
    key: "dtype"
    value {
      type: DT_FLOAT
    }
  }
  attr {
    key: "value"
    value {
      tensor {
        dtype: DT_FLOAT
        tensor_shape {
        }
        float_val: 0.3789490759372711
      }
    }
  }
}
node {
  name: "resnet_model/conv2d/kernel/Initializer/truncated_normal/TruncatedNormal"
  op: "TruncatedNormal"
  input: "resnet_model/conv2d/kernel/Initializer/truncated_normal/shape"
  attr {
    key: "T"
    value {
      type: DT_INT32
    }
  }
  attr {
    key: "_class"
    value {
      list {
        s: "loc:@resnet_model/conv2d/kernel"
      }
    }
  }
  attr {
    key: "_output_shapes"
    value {
      list {
        shape {
          dim {
            size: 3
          }
          dim {
            size: 3
          }
          dim {
            size: 1
          }
          dim {
            size: 8
          }
        }
      }
    }
  }
  attr {
    key: "dtype"
    value {
      type: DT_FLOAT
    }
  }
  attr {
    key: "seed"
    value {
      i: 0
    }
  }
  attr {
    key: "seed2"
    value {
      i: 0
    }
  }
}
node {
  name: "resnet_model/conv2d/kernel/Initializer/truncated_normal/mul"
  op: "Mul"
  input: "resnet_model/conv2d/kernel/Initializer/truncated_normal/TruncatedNormal"
  input: "resnet_model/conv2d/kernel/Initializer/truncated_normal/stddev"
  attr {
    key: "T"
    value {
      type: DT_FLOAT
    }
  }
  attr {
    key: "_class"
    value {
      list {
        s: "loc:@resnet_model/conv2d/kernel"
      }
    }
  }
  attr {
    key: "_output_shapes"
    value {
      list {
        shape {
          dim {
            size: 3
          }
          dim {
            size: 3
          }
          dim {
            size: 1
          }
          dim {
            size: 8
          }
        }
      }
    }
  }
}
node {
  name: "resnet_model/conv2d/kernel/Initializer/truncated_normal"
  op: "Add"
  input: "resnet_model/conv2d/kernel/Initializer/truncated_normal/mul"
  input: "resnet_model/conv2d/kernel/Initializer/truncated_normal/mean"
  attr {
    key: "T"
    value {
      type: DT_FLOAT
    }
  }
  attr {
    key: "_class"
    value {
      list {
        s: "loc:@resnet_model/conv2d/kernel"
      }
    }
  }
  attr {
    key: "_output_shapes"
    value {
      list {
        shape {
          dim {
            size: 3
          }
          dim {
            size: 3
          }
          dim {
            size: 1
          }
          dim {
            size: 8
          }
        }
      }
    }
  }
}
node {
  name: "resnet_model/conv2d/kernel"
  op: "VarHandleOp"
  device: "/device:GPU:0"
  attr {
    key: "_class"
    value {
      list {
        s: "loc:@resnet_model/conv2d/kernel"
      }
    }
  }
  attr {
    key: "_output_shapes"
    value {
      list {
        shape {
        }
      }
    }
  }
  attr {
    key: "container"
    value {
      s: ""
    }
  }
  attr {
    key: "dtype"
    value {
      type: DT_FLOAT
    }
  }
  attr {
    key: "shape"
    value {
      shape {
        dim {
          size: 3
        }
        dim {
          size: 3
        }
        dim {
          size: 1
        }
        dim {
          size: 8
        }
      }
    }
  }
  attr {
    key: "shared_name"
    value {
      s: "resnet_model/conv2d/kernel"
    }
  }
}
node {
  name: "resnet_model/conv2d/kernel/IsInitialized/VarIsInitializedOp"
  op: "VarIsInitializedOp"
  input: "resnet_model/conv2d/kernel"
  device: "/device:GPU:0"
  attr {
    key: "_output_shapes"
    value {
      list {
        shape {
        }
      }
    }
  }
}
node {
  name: "resnet_model/conv2d/kernel/Assign"
  op: "AssignVariableOp"
  input: "resnet_model/conv2d/kernel"
  input: "resnet_model/conv2d/kernel/Initializer/truncated_normal"
  device: "/device:GPU:0"
  attr {
    key: "_class"
    value {
      list {
        s: "loc:@resnet_model/conv2d/kernel"
      }
    }
  }
  attr {
    key: "dtype"
    value {
      type: DT_FLOAT
    }
  }
}
node {
  name: "resnet_model/conv2d/kernel/Read/ReadVariableOp"
  op: "ReadVariableOp"
  input: "resnet_model/conv2d/kernel"
  device: "/device:GPU:0"
  attr {
    key: "_class"
    value {
      list {
        s: "loc:@resnet_model/conv2d/kernel"
      }
    }
  }
  attr {
    key: "_output_shapes"
    value {
      list {
        shape {
          dim {
            size: 3
          }
          dim {
            size: 3
          }
          dim {
            size: 1
          }
          dim {
            size: 8
          }
        }
      }
    }
  }
  attr {
    key: "dtype"
    value {
      type: DT_FLOAT
    }
  }
}
node {
  name: "resnet_model/conv2d/dilation_rate"
  op: "Const"
  device: "/device:GPU:0"
  attr {
    key: "_output_shapes"
    value {
      list {
        shape {
          dim {
            size: 2
          }
        }
      }
    }
  }
  attr {
    key: "dtype"
    value {
      type: DT_INT32
    }
  }
  attr {
    key: "value"
    value {
      tensor {
        dtype: DT_INT32
        tensor_shape {
          dim {
            size: 2
          }
        }
        tensor_content: "\001\000\000\000\001\000\000\000"
      }
    }
  }
}
node {
  name: "resnet_model/conv2d/Conv2D/ReadVariableOp"
  op: "ReadVariableOp"
  input: "resnet_model/conv2d/kernel"
  device: "/device:GPU:0"
  attr {
    key: "_output_shapes"
    value {
      list {
        shape {
          dim {
            size: 3
          }
          dim {
            size: 3
          }
          dim {
            size: 1
          }
          dim {
            size: 8
          }
        }
      }
    }
  }
  attr {
    key: "dtype"
    value {
      type: DT_FLOAT
    }
  }
}
node {
  name: "resnet_model/conv2d/Conv2D"
  op: "Conv2D"
  input: "resnet_model/transpose"
  input: "resnet_model/conv2d/Conv2D/ReadVariableOp"
  device: "/device:GPU:0"
  attr {
    key: "T"
    value {
      type: DT_FLOAT
    }
  }
  attr {
    key: "_output_shapes"
    value {
      list {
        shape {
          dim {
            size: -1
          }
          dim {
            size: 8
          }
          dim {
            size: 512
          }
          dim {
            size: 512
          }
        }
      }
    }
  }
  attr {
    key: "data_format"
    value {
      s: "NCHW"
    }
  }
  attr {
    key: "dilations"
    value {
      list {
        i: 1
        i: 1
        i: 1
        i: 1
      }
    }
  }
  attr {
    key: "padding"
    value {
      s: "SAME"
    }
  }
  attr {
    key: "strides"
    value {
      list {
        i: 1
        i: 1
        i: 1
        i: 1
      }
    }
  }
  attr {
    key: "use_cudnn_on_gpu"
    value {
      b: true
    }
  }
}
node {
  name: "resnet_model/initial_conv"
  op: "Identity"
  input: "resnet_model/conv2d/Conv2D"
  device: "/device:GPU:0"
  attr {
    key: "T"
    value {
      type: DT_FLOAT
    }
  }
  attr {
    key: "_output_shapes"
    value {
      list {
        shape {
          dim {
            size: -1
          }
          dim {
            size: 8
          }
          dim {
            size: 512
          }
          dim {
            size: 512
          }
        }
      }
    }
  }
}
node {
  name: "resnet_model/batch_normalization/gamma/Initializer/ones"
  op: "Const"
  attr {
    key: "_class"
    value {
      list {
        s: "loc:@resnet_model/batch_normalization/gamma"
      }
    }
  }
  attr {
    key: "_output_shapes"
    value {
      list {
        shape {
          dim {
            size: 8
          }
        }
      }
    }
  }
  attr {
    key: "dtype"
    value {
      type: DT_FLOAT
    }
  }
  attr {
    key: "value"
    value {
      tensor {
        dtype: DT_FLOAT
        tensor_shape {
          dim {
            size: 8
          }
        }
        float_val: 1.0
      }
    }
  }
}
node {
  name: "resnet_model/batch_normalization/gamma"
  op: "VarHandleOp"
  device: "/device:GPU:0"
  attr {
    key: "_class"
    value {
      list {
        s: "loc:@resnet_model/batch_normalization/gamma"
      }
    }
  }
  attr {
    key: "_output_shapes"
    value {
      list {
        shape {
        }
      }
    }
  }
  attr {
    key: "container"
    value {
      s: ""
    }
  }
  attr {
    key: "dtype"
    value {
      type: DT_FLOAT
    }
  }
  attr {
    key: "shape"
    value {
      shape {
        dim {
          size: 8
        }
      }
    }
  }
  attr {
    key: "shared_name"
    value {
      s: "resnet_model/batch_normalization/gamma"
    }
  }
}
node {
  name: "resnet_model/batch_normalization/gamma/IsInitialized/VarIsInitializedOp"
  op: "VarIsInitializedOp"
  input: "resnet_model/batch_normalization/gamma"
  device: "/device:GPU:0"
  attr {
    key: "_output_shapes"
    value {
      list {
        shape {
        }
      }
    }
  }
}
node {
  name: "resnet_model/batch_normalization/gamma/Assign"
  op: "AssignVariableOp"
  input: "resnet_model/batch_normalization/gamma"
  input: "resnet_model/batch_normalization/gamma/Initializer/ones"
  device: "/device:GPU:0"
  attr {
    key: "_class"
    value {
      list {
        s: "loc:@resnet_model/batch_normalization/gamma"
      }
    }
  }
  attr {
    key: "dtype"
    value {
      type: DT_FLOAT
    }
  }
}
node {
  name: "resnet_model/batch_normalization/gamma/Read/ReadVariableOp"
  op: "ReadVariableOp"
  input: "resnet_model/batch_normalization/gamma"
  device: "/device:GPU:0"
  attr {
    key: "_class"
    value {
      list {
        s: "loc:@resnet_model/batch_normalization/gamma"
      }
    }
  }
  attr {
    key: "_output_shapes"
    value {
      list {
        shape {
          dim {
            size: 8
          }
        }
      }
    }
  }
  attr {
    key: "dtype"
    value {
      type: DT_FLOAT
    }
  }
}
node {
  name: "resnet_model/batch_normalization/beta/Initializer/zeros"
  op: "Const"
  attr {
    key: "_class"
    value {
      list {
        s: "loc:@resnet_model/batch_normalization/beta"
      }
    }
  }
  attr {
    key: "_output_shapes"
    value {
      list {
        shape {
          dim {
            size: 8
          }
        }
      }
    }
  }
  attr {
    key: "dtype"
    value {
      type: DT_FLOAT
    }
  }
  attr {
    key: "value"
    value {
      tensor {
        dtype: DT_FLOAT
        tensor_shape {
          dim {
            size: 8
          }
        }
        float_val: 0.0
      }
    }
  }
}
node {
  name: "resnet_model/batch_normalization/beta"
  op: "VarHandleOp"
  device: "/device:GPU:0"
  attr {
    key: "_class"
    value {
      list {
        s: "loc:@resnet_model/batch_normalization/beta"
      }
    }
  }
  attr {
    key: "_output_shapes"
    value {
      list {
        shape {
        }
      }
    }
  }
  attr {
    key: "container"
    value {
      s: ""
    }
  }
  attr {
    key: "dtype"
    value {
      type: DT_FLOAT
    }
  }
  attr {
    key: "shape"
    value {
      shape {
        dim {
          size: 8
        }
      }
    }
  }
  attr {
    key: "shared_name"
    value {
      s: "resnet_model/batch_normalization/beta"
    }
  }
}
node {
  name: "resnet_model/batch_normalization/beta/IsInitialized/VarIsInitializedOp"
  op: "VarIsInitializedOp"
  input: "resnet_model/batch_normalization/beta"
  device: "/device:GPU:0"
  attr {
    key: "_output_shapes"
    value {
      list {
        shape {
        }
      }
    }
  }
}
node {
  name: "resnet_model/batch_normalization/beta/Assign"
  op: "AssignVariableOp"
  input: "resnet_model/batch_normalization/beta"
  input: "resnet_model/batch_normalization/beta/Initializer/zeros"
  device: "/device:GPU:0"
  attr {
    key: "_class"
    value {
      list {
        s: "loc:@resnet_model/batch_normalization/beta"
      }
    }
  }
  attr {
    key: "dtype"
    value {
      type: DT_FLOAT
    }
  }
}
node {
  name: "resnet_model/batch_normalization/beta/Read/ReadVariableOp"
  op: "ReadVariableOp"
  input: "resnet_model/batch_normalization/beta"
  device: "/device:GPU:0"
  attr {
    key: "_class"
    value {
      list {
        s: "loc:@resnet_model/batch_normalization/beta"
      }
    }
  }
  attr {
    key: "_output_shapes"
    value {
      list {
        shape {
          dim {
            size: 8
          }
        }
      }
    }
  }
  attr {
    key: "dtype"
    value {
      type: DT_FLOAT
    }
  }
}
node {
  name: "resnet_model/batch_normalization/moving_mean/Initializer/zeros"
  op: "Const"
  attr {
    key: "_class"
    value {
      list {
        s: "loc:@resnet_model/batch_normalization/moving_mean"
      }
    }
  }
  attr {
    key: "_output_shapes"
    value {
      list {
        shape {
          dim {
            size: 8
          }
        }
      }
    }
  }
  attr {
    key: "dtype"
    value {
      type: DT_FLOAT
    }
  }
  attr {
    key: "value"
    value {
      tensor {
        dtype: DT_FLOAT
        tensor_shape {
          dim {
            size: 8
          }
        }
        float_val: 0.0
      }
    }
  }
}
node {
  name: "resnet_model/batch_normalization/moving_mean"
  op: "VarHandleOp"
  device: "/device:GPU:0"
  attr {
    key: "_class"
    value {
      list {
        s: "loc:@resnet_model/batch_normalization/moving_mean"
      }
    }
  }
  attr {
    key: "_output_shapes"
    value {
      list {
        shape {
        }
      }
    }
  }
  attr {
    key: "container"
    value {
      s: ""
    }
  }
  attr {
    key: "dtype"
    value {
      type: DT_FLOAT
    }
  }
  attr {
    key: "shape"
    value {
      shape {
        dim {
          size: 8
        }
      }
    }
  }
  attr {
    key: "shared_name"
    value {
      s: "resnet_model/batch_normalization/moving_mean"
    }
  }
}
node {
  name: "resnet_model/batch_normalization/moving_mean/IsInitialized/VarIsInitializedOp"
  op: "VarIsInitializedOp"
  input: "resnet_model/batch_normalization/moving_mean"
  device: "/device:GPU:0"
  attr {
    key: "_output_shapes"
    value {
      list {
        shape {
        }
      }
    }
  }
}
node {
  name: "resnet_model/batch_normalization/moving_mean/Assign"
  op: "AssignVariableOp"
  input: "resnet_model/batch_normalization/moving_mean"
  input: "resnet_model/batch_normalization/moving_mean/Initializer/zeros"
  device: "/device:GPU:0"
  attr {
    key: "_class"
    value {
      list {
        s: "loc:@resnet_model/batch_normalization/moving_mean"
      }
    }
  }
  attr {
    key: "dtype"
    value {
      type: DT_FLOAT
    }
  }
}
node {
  name: "resnet_model/batch_normalization/moving_mean/Read/ReadVariableOp"
  op: "ReadVariableOp"
  input: "resnet_model/batch_normalization/moving_mean"
  device: "/device:GPU:0"
  attr {
    key: "_class"
    value {
      list {
        s: "loc:@resnet_model/batch_normalization/moving_mean"
      }
    }
  }
  attr {
    key: "_output_shapes"
    value {
      list {
        shape {
          dim {
            size: 8
          }
        }
      }
    }
  }
  attr {
    key: "dtype"
    value {
      type: DT_FLOAT
    }
  }
}
node {
  name: "resnet_model/batch_normalization/moving_variance/Initializer/ones"
  op: "Const"
  attr {
    key: "_class"
    value {
      list {
        s: "loc:@resnet_model/batch_normalization/moving_variance"
      }
    }
  }
  attr {
    key: "_output_shapes"
    value {
      list {
        shape {
          dim {
            size: 8
          }
        }
      }
    }
  }
  attr {
    key: "dtype"
    value {
      type: DT_FLOAT
    }
  }
  attr {
    key: "value"
    value {
      tensor {
        dtype: DT_FLOAT
        tensor_shape {
          dim {
            size: 8
          }
        }
        float_val: 1.0
      }
    }
  }
}
node {
  name: "resnet_model/batch_normalization/moving_variance"
  op: "VarHandleOp"
  device: "/device:GPU:0"
  attr {
    key: "_class"
    value {
      list {
        s: "loc:@resnet_model/batch_normalization/moving_variance"
      }
    }
  }
  attr {
    key: "_output_shapes"
    value {
      list {
        shape {
        }
      }
    }
  }
  attr {
    key: "container"
    value {
      s: ""
    }
  }
  attr {
    key: "dtype"
    value {
      type: DT_FLOAT
    }
  }
  attr {
    key: "shape"
    value {
      shape {
        dim {
          size: 8
        }
      }
    }
  }
  attr {
    key: "shared_name"
    value {
      s: "resnet_model/batch_normalization/moving_variance"
    }
  }
}
node {
  name: "resnet_model/batch_normalization/moving_variance/IsInitialized/VarIsInitializedOp"
  op: "VarIsInitializedOp"
  input: "resnet_model/batch_normalization/moving_variance"
  device: "/device:GPU:0"
  attr {
    key: "_output_shapes"
    value {
      list {
        shape {
        }
      }
    }
  }
}
node {
  name: "resnet_model/batch_normalization/moving_variance/Assign"
  op: "AssignVariableOp"
  input: "resnet_model/batch_normalization/moving_variance"
  input: "resnet_model/batch_normalization/moving_variance/Initializer/ones"
  device: "/device:GPU:0"
  attr {
    key: "_class"
    value {
      list {
        s: "loc:@resnet_model/batch_normalization/moving_variance"
      }
    }
  }
  attr {
    key: "dtype"
    value {
      type: DT_FLOAT
    }
  }
}
node {
  name: "resnet_model/batch_normalization/moving_variance/Read/ReadVariableOp"
  op: "ReadVariableOp"
  input: "resnet_model/batch_normalization/moving_variance"
  device: "/device:GPU:0"
  attr {
    key: "_class"
    value {
      list {
        s: "loc:@resnet_model/batch_normalization/moving_variance"
      }
    }
  }
  attr {
    key: "_output_shapes"
    value {
      list {
        shape {
          dim {
            size: 8
          }
        }
      }
    }
  }
  attr {
    key: "dtype"
    value {
      type: DT_FLOAT
    }
  }
}
node {
  name: "resnet_model/batch_normalization/ReadVariableOp"
  op: "ReadVariableOp"
  input: "resnet_model/batch_normalization/gamma"
  device: "/device:GPU:0"
  attr {
    key: "_output_shapes"
    value {
      list {
        shape {
          dim {
            size: 8
          }
        }
      }
    }
  }
  attr {
    key: "dtype"
    value {
      type: DT_FLOAT
    }
  }
}
node {
  name: "resnet_model/batch_normalization/ReadVariableOp_1"
  op: "ReadVariableOp"
  input: "resnet_model/batch_normalization/beta"
  device: "/device:GPU:0"
  attr {
    key: "_output_shapes"
    value {
      list {
        shape {
          dim {
            size: 8
          }
        }
      }
    }
  }
  attr {
    key: "dtype"
    value {
      type: DT_FLOAT
    }
  }
}
node {
  name: "resnet_model/batch_normalization/Const"
  op: "Const"
  device: "/device:GPU:0"
  attr {
    key: "_output_shapes"
    value {
      list {
        shape {
          dim {
          }
        }
      }
    }
  }
  attr {
    key: "dtype"
    value {
      type: DT_FLOAT
    }
  }
  attr {
    key: "value"
    value {
      tensor {
        dtype: DT_FLOAT
        tensor_shape {
          dim {
          }
        }
      }
    }
  }
}
node {
  name: "resnet_model/batch_normalization/Const_1"
  op: "Const"
  device: "/device:GPU:0"
  attr {
    key: "_output_shapes"
    value {
      list {
        shape {
          dim {
          }
        }
      }
    }
  }
  attr {
    key: "dtype"
    value {
      type: DT_FLOAT
    }
  }
  attr {
    key: "value"
    value {
      tensor {
        dtype: DT_FLOAT
        tensor_shape {
          dim {
          }
        }
      }
    }
  }
}
node {
  name: "resnet_model/batch_normalization/FusedBatchNorm"
  op: "FusedBatchNorm"
  input: "resnet_model/initial_conv"
  input: "resnet_model/batch_normalization/ReadVariableOp"
  input: "resnet_model/batch_normalization/ReadVariableOp_1"
  input: "resnet_model/batch_normalization/Const"
  input: "resnet_model/batch_normalization/Const_1"
  device: "/device:GPU:0"
  attr {
    key: "T"
    value {
      type: DT_FLOAT
    }
  }
  attr {
    key: "_output_shapes"
    value {
      list {
        shape {
          dim {
            size: -1
          }
          dim {
            size: 8
          }
          dim {
            size: 512
          }
          dim {
            size: 512
          }
        }
        shape {
          dim {
            size: 8
          }
        }
        shape {
          dim {
            size: 8
          }
        }
        shape {
          dim {
            size: 8
          }
        }
        shape {
          dim {
            size: 8
          }
        }
      }
    }
  }
  attr {
    key: "data_format"
    value {
      s: "NCHW"
    }
  }
  attr {
    key: "epsilon"
    value {
      f: 1.0009999641624745e-05
    }
  }
  attr {
    key: "is_training"
    value {
      b: true
    }
  }
}
node {
  name: "resnet_model/batch_normalization/Const_2"
  op: "Const"
  device: "/device:GPU:0"
  attr {
    key: "_output_shapes"
    value {
      list {
        shape {
        }
      }
    }
  }
  attr {
    key: "dtype"
    value {
      type: DT_FLOAT
    }
  }
  attr {
    key: "value"
    value {
      tensor {
        dtype: DT_FLOAT
        tensor_shape {
        }
        float_val: 0.996999979019165
      }
    }
  }
}
node {
  name: "resnet_model/batch_normalization/AssignMovingAvg/Read/ReadVariableOp"
  op: "ReadVariableOp"
  input: "resnet_model/batch_normalization/moving_mean"
  device: "/device:GPU:0"
  attr {
    key: "_output_shapes"
    value {
      list {
        shape {
          dim {
            size: 8
          }
        }
      }
    }
  }
  attr {
    key: "dtype"
    value {
      type: DT_FLOAT
    }
  }
}
node {
  name: "resnet_model/batch_normalization/AssignMovingAvg/Identity"
  op: "Identity"
  input: "resnet_model/batch_normalization/AssignMovingAvg/Read/ReadVariableOp"
  device: "/device:GPU:0"
  attr {
    key: "T"
    value {
      type: DT_FLOAT
    }
  }
  attr {
    key: "_output_shapes"
    value {
      list {
        shape {
          dim {
            size: 8
          }
        }
      }
    }
  }
}
node {
  name: "resnet_model/batch_normalization/AssignMovingAvg/sub/x"
  op: "Const"
  device: "/device:GPU:0"
  attr {
    key: "_class"
    value {
      list {
        s: "loc:@resnet_model/batch_normalization/AssignMovingAvg/Read/ReadVariableOp"
      }
    }
  }
  attr {
    key: "_output_shapes"
    value {
      list {
        shape {
        }
      }
    }
  }
  attr {
    key: "dtype"
    value {
      type: DT_FLOAT
    }
  }
  attr {
    key: "value"
    value {
      tensor {
        dtype: DT_FLOAT
        tensor_shape {
        }
        float_val: 1.0
      }
    }
  }
}
node {
  name: "resnet_model/batch_normalization/AssignMovingAvg/sub"
  op: "Sub"
  input: "resnet_model/batch_normalization/AssignMovingAvg/sub/x"
  input: "resnet_model/batch_normalization/Const_2"
  device: "/device:GPU:0"
  attr {
    key: "T"
    value {
      type: DT_FLOAT
    }
  }
  attr {
    key: "_class"
    value {
      list {
        s: "loc:@resnet_model/batch_normalization/AssignMovingAvg/Read/ReadVariableOp"
      }
    }
  }
  attr {
    key: "_output_shapes"
    value {
      list {
        shape {
        }
      }
    }
  }
}
node {
  name: "resnet_model/batch_normalization/AssignMovingAvg/ReadVariableOp"
  op: "ReadVariableOp"
  input: "resnet_model/batch_normalization/moving_mean"
  device: "/device:GPU:0"
  attr {
    key: "_output_shapes"
    value {
      list {
        shape {
          dim {
            size: 8
          }
        }
      }
    }
  }
  attr {
    key: "dtype"
    value {
      type: DT_FLOAT
    }
  }
}
node {
  name: "resnet_model/batch_normalization/AssignMovingAvg/sub_1"
  op: "Sub"
  input: "resnet_model/batch_normalization/AssignMovingAvg/ReadVariableOp"
  input: "resnet_model/batch_normalization/FusedBatchNorm:1"
  device: "/device:GPU:0"
  attr {
    key: "T"
    value {
      type: DT_FLOAT
    }
  }
  attr {
    key: "_class"
    value {
      list {
        s: "loc:@resnet_model/batch_normalization/AssignMovingAvg/Read/ReadVariableOp"
      }
    }
  }
  attr {
    key: "_output_shapes"
    value {
      list {
        shape {
          dim {
            size: 8
          }
        }
      }
    }
  }
}
node {
  name: "resnet_model/batch_normalization/AssignMovingAvg/mul"
  op: "Mul"
  input: "resnet_model/batch_normalization/AssignMovingAvg/sub_1"
  input: "resnet_model/batch_normalization/AssignMovingAvg/sub"
  device: "/device:GPU:0"
  attr {
    key: "T"
    value {
      type: DT_FLOAT
    }
  }
  attr {
    key: "_class"
    value {
      list {
        s: "loc:@resnet_model/batch_normalization/AssignMovingAvg/Read/ReadVariableOp"
      }
    }
  }
  attr {
    key: "_output_shapes"
    value {
      list {
        shape {
          dim {
            size: 8
          }
        }
      }
    }
  }
}
node {
  name: "resnet_model/batch_normalization/AssignMovingAvg/AssignSubVariableOp"
  op: "AssignSubVariableOp"
  input: "resnet_model/batch_normalization/moving_mean"
  input: "resnet_model/batch_normalization/AssignMovingAvg/mul"
  device: "/device:GPU:0"
  attr {
    key: "_class"
    value {
      list {
        s: "loc:@resnet_model/batch_normalization/AssignMovingAvg/Read/ReadVariableOp"
      }
    }
  }
  attr {
    key: "dtype"
    value {
      type: DT_FLOAT
    }
  }
}
node {
  name: "resnet_model/batch_normalization/AssignMovingAvg/ReadVariableOp_1"
  op: "ReadVariableOp"
  input: "resnet_model/batch_normalization/moving_mean"
  input: "^resnet_model/batch_normalization/AssignMovingAvg/AssignSubVariableOp"
  device: "/device:GPU:0"
  attr {
    key: "_class"
    value {
      list {
        s: "loc:@resnet_model/batch_normalization/AssignMovingAvg/Read/ReadVariableOp"
      }
    }
  }
  attr {
    key: "_output_shapes"
    value {
      list {
        shape {
          dim {
            size: 8
          }
        }
      }
    }
  }
  attr {
    key: "dtype"
    value {
      type: DT_FLOAT
    }
  }
}
node {
  name: "resnet_model/batch_normalization/AssignMovingAvg_1/Read/ReadVariableOp"
  op: "ReadVariableOp"
  input: "resnet_model/batch_normalization/moving_variance"
  device: "/device:GPU:0"
  attr {
    key: "_output_shapes"
    value {
      list {
        shape {
          dim {
            size: 8
          }
        }
      }
    }
  }
  attr {
    key: "dtype"
    value {
      type: DT_FLOAT
    }
  }
}
node {
  name: "resnet_model/batch_normalization/AssignMovingAvg_1/Identity"
  op: "Identity"
  input: "resnet_model/batch_normalization/AssignMovingAvg_1/Read/ReadVariableOp"
  device: "/device:GPU:0"
  attr {
    key: "T"
    value {
      type: DT_FLOAT
    }
  }
  attr {
    key: "_output_shapes"
    value {
      list {
        shape {
          dim {
            size: 8
          }
        }
      }
    }
  }
}
node {
  name: "resnet_model/batch_normalization/AssignMovingAvg_1/sub/x"
  op: "Const"
  device: "/device:GPU:0"
  attr {
    key: "_class"
    value {
      list {
        s: "loc:@resnet_model/batch_normalization/AssignMovingAvg_1/Read/ReadVariableOp"
      }
    }
  }
  attr {
    key: "_output_shapes"
    value {
      list {
        shape {
        }
      }
    }
  }
  attr {
    key: "dtype"
    value {
      type: DT_FLOAT
    }
  }
  attr {
    key: "value"
    value {
      tensor {
        dtype: DT_FLOAT
        tensor_shape {
        }
        float_val: 1.0
      }
    }
  }
}
node {
  name: "resnet_model/batch_normalization/AssignMovingAvg_1/sub"
  op: "Sub"
  input: "resnet_model/batch_normalization/AssignMovingAvg_1/sub/x"
  input: "resnet_model/batch_normalization/Const_2"
  device: "/device:GPU:0"
  attr {
    key: "T"
    value {
      type: DT_FLOAT
    }
  }
  attr {
    key: "_class"
    value {
      list {
        s: "loc:@resnet_model/batch_normalization/AssignMovingAvg_1/Read/ReadVariableOp"
      }
    }
  }
  attr {
    key: "_output_shapes"
    value {
      list {
        shape {
        }
      }
    }
  }
}
node {
  name: "resnet_model/batch_normalization/AssignMovingAvg_1/ReadVariableOp"
  op: "ReadVariableOp"
  input: "resnet_model/batch_normalization/moving_variance"
  device: "/device:GPU:0"
  attr {
    key: "_output_shapes"
    value {
      list {
        shape {
          dim {
            size: 8
          }
        }
      }
    }
  }
  attr {
    key: "dtype"
    value {
      type: DT_FLOAT
    }
  }
}
node {
  name: "resnet_model/batch_normalization/AssignMovingAvg_1/sub_1"
  op: "Sub"
  input: "resnet_model/batch_normalization/AssignMovingAvg_1/ReadVariableOp"
  input: "resnet_model/batch_normalization/FusedBatchNorm:2"
  device: "/device:GPU:0"
  attr {
    key: "T"
    value {
      type: DT_FLOAT
    }
  }
  attr {
    key: "_class"
    value {
      list {
        s: "loc:@resnet_model/batch_normalization/AssignMovingAvg_1/Read/ReadVariableOp"
      }
    }
  }
  attr {
    key: "_output_shapes"
    value {
      list {
        shape {
          dim {
            size: 8
          }
        }
      }
    }
  }
}
node {
  name: "resnet_model/batch_normalization/AssignMovingAvg_1/mul"
  op: "Mul"
  input: "resnet_model/batch_normalization/AssignMovingAvg_1/sub_1"
  input: "resnet_model/batch_normalization/AssignMovingAvg_1/sub"
  device: "/device:GPU:0"
  attr {
    key: "T"
    value {
      type: DT_FLOAT
    }
  }
  attr {
    key: "_class"
    value {
      list {
        s: "loc:@resnet_model/batch_normalization/AssignMovingAvg_1/Read/ReadVariableOp"
      }
    }
  }
  attr {
    key: "_output_shapes"
    value {
      list {
        shape {
          dim {
            size: 8
          }
        }
      }
    }
  }
}
node {
  name: "resnet_model/batch_normalization/AssignMovingAvg_1/AssignSubVariableOp"
  op: "AssignSubVariableOp"
  input: "resnet_model/batch_normalization/moving_variance"
  input: "resnet_model/batch_normalization/AssignMovingAvg_1/mul"
  device: "/device:GPU:0"
  attr {
    key: "_class"
    value {
      list {
        s: "loc:@resnet_model/batch_normalization/AssignMovingAvg_1/Read/ReadVariableOp"
      }
    }
  }
  attr {
    key: "dtype"
    value {
      type: DT_FLOAT
    }
  }
}
node {
  name: "resnet_model/batch_normalization/AssignMovingAvg_1/ReadVariableOp_1"
  op: "ReadVariableOp"
  input: "resnet_model/batch_normalization/moving_variance"
  input: "^resnet_model/batch_normalization/AssignMovingAvg_1/AssignSubVariableOp"
  device: "/device:GPU:0"
  attr {
    key: "_class"
    value {
      list {
        s: "loc:@resnet_model/batch_normalization/AssignMovingAvg_1/Read/ReadVariableOp"
      }
    }
  }
  attr {
    key: "_output_shapes"
    value {
      list {
        shape {
          dim {
            size: 8
          }
        }
      }
    }
  }
  attr {
    key: "dtype"
    value {
      type: DT_FLOAT
    }
  }
}
node {
  name: "resnet_model/Relu"
  op: "Relu"
  input: "resnet_model/batch_normalization/FusedBatchNorm"
  device: "/device:GPU:0"
  attr {
    key: "T"
    value {
      type: DT_FLOAT
    }
  }
  attr {
    key: "_output_shapes"
    value {
      list {
        shape {
          dim {
            size: -1
          }
          dim {
            size: 8
          }
          dim {
            size: 512
          }
          dim {
            size: 512
          }
        }
      }
    }
  }
}
node {
  name: "resnet_model/conv2d_1/kernel/Initializer/truncated_normal/shape"
  op: "Const"
  attr {
    key: "_class"
    value {
      list {
        s: "loc:@resnet_model/conv2d_1/kernel"
      }
    }
  }
  attr {
    key: "_output_shapes"
    value {
      list {
        shape {
          dim {
            size: 4
          }
        }
      }
    }
  }
  attr {
    key: "dtype"
    value {
      type: DT_INT32
    }
  }
  attr {
    key: "value"
    value {
      tensor {
        dtype: DT_INT32
        tensor_shape {
          dim {
            size: 4
          }
        }
        tensor_content: "\001\000\000\000\001\000\000\000\010\000\000\000\010\000\000\000"
      }
    }
  }
}
node {
  name: "resnet_model/conv2d_1/kernel/Initializer/truncated_normal/mean"
  op: "Const"
  attr {
    key: "_class"
    value {
      list {
        s: "loc:@resnet_model/conv2d_1/kernel"
      }
    }
  }
  attr {
    key: "_output_shapes"
    value {
      list {
        shape {
        }
      }
    }
  }
  attr {
    key: "dtype"
    value {
      type: DT_FLOAT
    }
  }
  attr {
    key: "value"
    value {
      tensor {
        dtype: DT_FLOAT
        tensor_shape {
        }
        float_val: 0.0
      }
    }
  }
}
node {
  name: "resnet_model/conv2d_1/kernel/Initializer/truncated_normal/stddev"
  op: "Const"
  attr {
    key: "_class"
    value {
      list {
        s: "loc:@resnet_model/conv2d_1/kernel"
      }
    }
  }
  attr {
    key: "_output_shapes"
    value {
      list {
        shape {
        }
      }
    }
  }
  attr {
    key: "dtype"
    value {
      type: DT_FLOAT
    }
  }
  attr {
    key: "value"
    value {
      tensor {
        dtype: DT_FLOAT
        tensor_shape {
        }
        float_val: 0.40193620324134827
      }
    }
  }
}
node {
  name: "resnet_model/conv2d_1/kernel/Initializer/truncated_normal/TruncatedNormal"
  op: "TruncatedNormal"
  input: "resnet_model/conv2d_1/kernel/Initializer/truncated_normal/shape"
  attr {
    key: "T"
    value {
      type: DT_INT32
    }
  }
  attr {
    key: "_class"
    value {
      list {
        s: "loc:@resnet_model/conv2d_1/kernel"
      }
    }
  }
  attr {
    key: "_output_shapes"
    value {
      list {
        shape {
          dim {
            size: 1
          }
          dim {
            size: 1
          }
          dim {
            size: 8
          }
          dim {
            size: 8
          }
        }
      }
    }
  }
  attr {
    key: "dtype"
    value {
      type: DT_FLOAT
    }
  }
  attr {
    key: "seed"
    value {
      i: 0
    }
  }
  attr {
    key: "seed2"
    value {
      i: 0
    }
  }
}
node {
  name: "resnet_model/conv2d_1/kernel/Initializer/truncated_normal/mul"
  op: "Mul"
  input: "resnet_model/conv2d_1/kernel/Initializer/truncated_normal/TruncatedNormal"
  input: "resnet_model/conv2d_1/kernel/Initializer/truncated_normal/stddev"
  attr {
    key: "T"
    value {
      type: DT_FLOAT
    }
  }
  attr {
    key: "_class"
    value {
      list {
        s: "loc:@resnet_model/conv2d_1/kernel"
      }
    }
  }
  attr {
    key: "_output_shapes"
    value {
      list {
        shape {
          dim {
            size: 1
          }
          dim {
            size: 1
          }
          dim {
            size: 8
          }
          dim {
            size: 8
          }
        }
      }
    }
  }
}
node {
  name: "resnet_model/conv2d_1/kernel/Initializer/truncated_normal"
  op: "Add"
  input: "resnet_model/conv2d_1/kernel/Initializer/truncated_normal/mul"
  input: "resnet_model/conv2d_1/kernel/Initializer/truncated_normal/mean"
  attr {
    key: "T"
    value {
      type: DT_FLOAT
    }
  }
  attr {
    key: "_class"
    value {
      list {
        s: "loc:@resnet_model/conv2d_1/kernel"
      }
    }
  }
  attr {
    key: "_output_shapes"
    value {
      list {
        shape {
          dim {
            size: 1
          }
          dim {
            size: 1
          }
          dim {
            size: 8
          }
          dim {
            size: 8
          }
        }
      }
    }
  }
}
node {
  name: "resnet_model/conv2d_1/kernel"
  op: "VarHandleOp"
  device: "/device:GPU:0"
  attr {
    key: "_class"
    value {
      list {
        s: "loc:@resnet_model/conv2d_1/kernel"
      }
    }
  }
  attr {
    key: "_output_shapes"
    value {
      list {
        shape {
        }
      }
    }
  }
  attr {
    key: "container"
    value {
      s: ""
    }
  }
  attr {
    key: "dtype"
    value {
      type: DT_FLOAT
    }
  }
  attr {
    key: "shape"
    value {
      shape {
        dim {
          size: 1
        }
        dim {
          size: 1
        }
        dim {
          size: 8
        }
        dim {
          size: 8
        }
      }
    }
  }
  attr {
    key: "shared_name"
    value {
      s: "resnet_model/conv2d_1/kernel"
    }
  }
}
node {
  name: "resnet_model/conv2d_1/kernel/IsInitialized/VarIsInitializedOp"
  op: "VarIsInitializedOp"
  input: "resnet_model/conv2d_1/kernel"
  device: "/device:GPU:0"
  attr {
    key: "_output_shapes"
    value {
      list {
        shape {
        }
      }
    }
  }
}
node {
  name: "resnet_model/conv2d_1/kernel/Assign"
  op: "AssignVariableOp"
  input: "resnet_model/conv2d_1/kernel"
  input: "resnet_model/conv2d_1/kernel/Initializer/truncated_normal"
  device: "/device:GPU:0"
  attr {
    key: "_class"
    value {
      list {
        s: "loc:@resnet_model/conv2d_1/kernel"
      }
    }
  }
  attr {
    key: "dtype"
    value {
      type: DT_FLOAT
    }
  }
}
node {
  name: "resnet_model/conv2d_1/kernel/Read/ReadVariableOp"
  op: "ReadVariableOp"
  input: "resnet_model/conv2d_1/kernel"
  device: "/device:GPU:0"
  attr {
    key: "_class"
    value {
      list {
        s: "loc:@resnet_model/conv2d_1/kernel"
      }
    }
  }
  attr {
    key: "_output_shapes"
    value {
      list {
        shape {
          dim {
            size: 1
          }
          dim {
            size: 1
          }
          dim {
            size: 8
          }
          dim {
            size: 8
          }
        }
      }
    }
  }
  attr {
    key: "dtype"
    value {
      type: DT_FLOAT
    }
  }
}
node {
  name: "resnet_model/conv2d_1/dilation_rate"
  op: "Const"
  device: "/device:GPU:0"
  attr {
    key: "_output_shapes"
    value {
      list {
        shape {
          dim {
            size: 2
          }
        }
      }
    }
  }
  attr {
    key: "dtype"
    value {
      type: DT_INT32
    }
  }
  attr {
    key: "value"
    value {
      tensor {
        dtype: DT_INT32
        tensor_shape {
          dim {
            size: 2
          }
        }
        tensor_content: "\001\000\000\000\001\000\000\000"
      }
    }
  }
}
node {
  name: "resnet_model/conv2d_1/Conv2D/ReadVariableOp"
  op: "ReadVariableOp"
  input: "resnet_model/conv2d_1/kernel"
  device: "/device:GPU:0"
  attr {
    key: "_output_shapes"
    value {
      list {
        shape {
          dim {
            size: 1
          }
          dim {
            size: 1
          }
          dim {
            size: 8
          }
          dim {
            size: 8
          }
        }
      }
    }
  }
  attr {
    key: "dtype"
    value {
      type: DT_FLOAT
    }
  }
}
node {
  name: "resnet_model/conv2d_1/Conv2D"
  op: "Conv2D"
  input: "resnet_model/Relu"
  input: "resnet_model/conv2d_1/Conv2D/ReadVariableOp"
  device: "/device:GPU:0"
  attr {
    key: "T"
    value {
      type: DT_FLOAT
    }
  }
  attr {
    key: "_output_shapes"
    value {
      list {
        shape {
          dim {
            size: -1
          }
          dim {
            size: 8
          }
          dim {
            size: 512
          }
          dim {
            size: 512
          }
        }
      }
    }
  }
  attr {
    key: "data_format"
    value {
      s: "NCHW"
    }
  }
  attr {
    key: "dilations"
    value {
      list {
        i: 1
        i: 1
        i: 1
        i: 1
      }
    }
  }
  attr {
    key: "padding"
    value {
      s: "SAME"
    }
  }
  attr {
    key: "strides"
    value {
      list {
        i: 1
        i: 1
        i: 1
        i: 1
      }
    }
  }
  attr {
    key: "use_cudnn_on_gpu"
    value {
      b: true
    }
  }
}
node {
  name: "resnet_model/conv2d_2/kernel/Initializer/truncated_normal/shape"
  op: "Const"
  attr {
    key: "_class"
    value {
      list {
        s: "loc:@resnet_model/conv2d_2/kernel"
      }
    }
  }
  attr {
    key: "_output_shapes"
    value {
      list {
        shape {
          dim {
            size: 4
          }
        }
      }
    }
  }
  attr {
    key: "dtype"
    value {
      type: DT_INT32
    }
  }
  attr {
    key: "value"
    value {
      tensor {
        dtype: DT_INT32
        tensor_shape {
          dim {
            size: 4
          }
        }
        tensor_content: "\003\000\000\000\003\000\000\000\010\000\000\000\010\000\000\000"
      }
    }
  }
}
node {
  name: "resnet_model/conv2d_2/kernel/Initializer/truncated_normal/mean"
  op: "Const"
  attr {
    key: "_class"
    value {
      list {
        s: "loc:@resnet_model/conv2d_2/kernel"
      }
    }
  }
  attr {
    key: "_output_shapes"
    value {
      list {
        shape {
        }
      }
    }
  }
  attr {
    key: "dtype"
    value {
      type: DT_FLOAT
    }
  }
  attr {
    key: "value"
    value {
      tensor {
        dtype: DT_FLOAT
        tensor_shape {
        }
        float_val: 0.0
      }
    }
  }
}
node {
  name: "resnet_model/conv2d_2/kernel/Initializer/truncated_normal/stddev"
  op: "Const"
  attr {
    key: "_class"
    value {
      list {
        s: "loc:@resnet_model/conv2d_2/kernel"
      }
    }
  }
  attr {
    key: "_output_shapes"
    value {
      list {
        shape {
        }
      }
    }
  }
  attr {
    key: "dtype"
    value {
      type: DT_FLOAT
    }
  }
  attr {
    key: "value"
    value {
      tensor {
        dtype: DT_FLOAT
        tensor_shape {
        }
        float_val: 0.1339787244796753
      }
    }
  }
}
node {
  name: "resnet_model/conv2d_2/kernel/Initializer/truncated_normal/TruncatedNormal"
  op: "TruncatedNormal"
  input: "resnet_model/conv2d_2/kernel/Initializer/truncated_normal/shape"
  attr {
    key: "T"
    value {
      type: DT_INT32
    }
  }
  attr {
    key: "_class"
    value {
      list {
        s: "loc:@resnet_model/conv2d_2/kernel"
      }
    }
  }
  attr {
    key: "_output_shapes"
    value {
      list {
        shape {
          dim {
            size: 3
          }
          dim {
            size: 3
          }
          dim {
            size: 8
          }
          dim {
            size: 8
          }
        }
      }
    }
  }
  attr {
    key: "dtype"
    value {
      type: DT_FLOAT
    }
  }
  attr {
    key: "seed"
    value {
      i: 0
    }
  }
  attr {
    key: "seed2"
    value {
      i: 0
    }
  }
}
node {
  name: "resnet_model/conv2d_2/kernel/Initializer/truncated_normal/mul"
  op: "Mul"
  input: "resnet_model/conv2d_2/kernel/Initializer/truncated_normal/TruncatedNormal"
  input: "resnet_model/conv2d_2/kernel/Initializer/truncated_normal/stddev"
  attr {
    key: "T"
    value {
      type: DT_FLOAT
    }
  }
  attr {
    key: "_class"
    value {
      list {
        s: "loc:@resnet_model/conv2d_2/kernel"
      }
    }
  }
  attr {
    key: "_output_shapes"
    value {
      list {
        shape {
          dim {
            size: 3
          }
          dim {
            size: 3
          }
          dim {
            size: 8
          }
          dim {
            size: 8
          }
        }
      }
    }
  }
}
node {
  name: "resnet_model/conv2d_2/kernel/Initializer/truncated_normal"
  op: "Add"
  input: "resnet_model/conv2d_2/kernel/Initializer/truncated_normal/mul"
  input: "resnet_model/conv2d_2/kernel/Initializer/truncated_normal/mean"
  attr {
    key: "T"
    value {
      type: DT_FLOAT
    }
  }
  attr {
    key: "_class"
    value {
      list {
        s: "loc:@resnet_model/conv2d_2/kernel"
      }
    }
  }
  attr {
    key: "_output_shapes"
    value {
      list {
        shape {
          dim {
            size: 3
          }
          dim {
            size: 3
          }
          dim {
            size: 8
          }
          dim {
            size: 8
          }
        }
      }
    }
  }
}
node {
  name: "resnet_model/conv2d_2/kernel"
  op: "VarHandleOp"
  device: "/device:GPU:0"
  attr {
    key: "_class"
    value {
      list {
        s: "loc:@resnet_model/conv2d_2/kernel"
      }
    }
  }
  attr {
    key: "_output_shapes"
    value {
      list {
        shape {
        }
      }
    }
  }
  attr {
    key: "container"
    value {
      s: ""
    }
  }
  attr {
    key: "dtype"
    value {
      type: DT_FLOAT
    }
  }
  attr {
    key: "shape"
    value {
      shape {
        dim {
          size: 3
        }
        dim {
          size: 3
        }
        dim {
          size: 8
        }
        dim {
          size: 8
        }
      }
    }
  }
  attr {
    key: "shared_name"
    value {
      s: "resnet_model/conv2d_2/kernel"
    }
  }
}
node {
  name: "resnet_model/conv2d_2/kernel/IsInitialized/VarIsInitializedOp"
  op: "VarIsInitializedOp"
  input: "resnet_model/conv2d_2/kernel"
  device: "/device:GPU:0"
  attr {
    key: "_output_shapes"
    value {
      list {
        shape {
        }
      }
    }
  }
}
node {
  name: "resnet_model/conv2d_2/kernel/Assign"
  op: "AssignVariableOp"
  input: "resnet_model/conv2d_2/kernel"
  input: "resnet_model/conv2d_2/kernel/Initializer/truncated_normal"
  device: "/device:GPU:0"
  attr {
    key: "_class"
    value {
      list {
        s: "loc:@resnet_model/conv2d_2/kernel"
      }
    }
  }
  attr {
    key: "dtype"
    value {
      type: DT_FLOAT
    }
  }
}
node {
  name: "resnet_model/conv2d_2/kernel/Read/ReadVariableOp"
  op: "ReadVariableOp"
  input: "resnet_model/conv2d_2/kernel"
  device: "/device:GPU:0"
  attr {
    key: "_class"
    value {
      list {
        s: "loc:@resnet_model/conv2d_2/kernel"
      }
    }
  }
  attr {
    key: "_output_shapes"
    value {
      list {
        shape {
          dim {
            size: 3
          }
          dim {
            size: 3
          }
          dim {
            size: 8
          }
          dim {
            size: 8
          }
        }
      }
    }
  }
  attr {
    key: "dtype"
    value {
      type: DT_FLOAT
    }
  }
}
node {
  name: "resnet_model/conv2d_2/dilation_rate"
  op: "Const"
  device: "/device:GPU:0"
  attr {
    key: "_output_shapes"
    value {
      list {
        shape {
          dim {
            size: 2
          }
        }
      }
    }
  }
  attr {
    key: "dtype"
    value {
      type: DT_INT32
    }
  }
  attr {
    key: "value"
    value {
      tensor {
        dtype: DT_INT32
        tensor_shape {
          dim {
            size: 2
          }
        }
        tensor_content: "\001\000\000\000\001\000\000\000"
      }
    }
  }
}
node {
  name: "resnet_model/conv2d_2/Conv2D/ReadVariableOp"
  op: "ReadVariableOp"
  input: "resnet_model/conv2d_2/kernel"
  device: "/device:GPU:0"
  attr {
    key: "_output_shapes"
    value {
      list {
        shape {
          dim {
            size: 3
          }
          dim {
            size: 3
          }
          dim {
            size: 8
          }
          dim {
            size: 8
          }
        }
      }
    }
  }
  attr {
    key: "dtype"
    value {
      type: DT_FLOAT
    }
  }
}
node {
  name: "resnet_model/conv2d_2/Conv2D"
  op: "Conv2D"
  input: "resnet_model/Relu"
  input: "resnet_model/conv2d_2/Conv2D/ReadVariableOp"
  device: "/device:GPU:0"
  attr {
    key: "T"
    value {
      type: DT_FLOAT
    }
  }
  attr {
    key: "_output_shapes"
    value {
      list {
        shape {
          dim {
            size: -1
          }
          dim {
            size: 8
          }
          dim {
            size: 512
          }
          dim {
            size: 512
          }
        }
      }
    }
  }
  attr {
    key: "data_format"
    value {
      s: "NCHW"
    }
  }
  attr {
    key: "dilations"
    value {
      list {
        i: 1
        i: 1
        i: 1
        i: 1
      }
    }
  }
  attr {
    key: "padding"
    value {
      s: "SAME"
    }
  }
  attr {
    key: "strides"
    value {
      list {
        i: 1
        i: 1
        i: 1
        i: 1
      }
    }
  }
  attr {
    key: "use_cudnn_on_gpu"
    value {
      b: true
    }
  }
}
node {
  name: "resnet_model/batch_normalization_1/gamma/Initializer/ones"
  op: "Const"
  attr {
    key: "_class"
    value {
      list {
        s: "loc:@resnet_model/batch_normalization_1/gamma"
      }
    }
  }
  attr {
    key: "_output_shapes"
    value {
      list {
        shape {
          dim {
            size: 8
          }
        }
      }
    }
  }
  attr {
    key: "dtype"
    value {
      type: DT_FLOAT
    }
  }
  attr {
    key: "value"
    value {
      tensor {
        dtype: DT_FLOAT
        tensor_shape {
          dim {
            size: 8
          }
        }
        float_val: 1.0
      }
    }
  }
}
node {
  name: "resnet_model/batch_normalization_1/gamma"
  op: "VarHandleOp"
  device: "/device:GPU:0"
  attr {
    key: "_class"
    value {
      list {
        s: "loc:@resnet_model/batch_normalization_1/gamma"
      }
    }
  }
  attr {
    key: "_output_shapes"
    value {
      list {
        shape {
        }
      }
    }
  }
  attr {
    key: "container"
    value {
      s: ""
    }
  }
  attr {
    key: "dtype"
    value {
      type: DT_FLOAT
    }
  }
  attr {
    key: "shape"
    value {
      shape {
        dim {
          size: 8
        }
      }
    }
  }
  attr {
    key: "shared_name"
    value {
      s: "resnet_model/batch_normalization_1/gamma"
    }
  }
}
node {
  name: "resnet_model/batch_normalization_1/gamma/IsInitialized/VarIsInitializedOp"
  op: "VarIsInitializedOp"
  input: "resnet_model/batch_normalization_1/gamma"
  device: "/device:GPU:0"
  attr {
    key: "_output_shapes"
    value {
      list {
        shape {
        }
      }
    }
  }
}
node {
  name: "resnet_model/batch_normalization_1/gamma/Assign"
  op: "AssignVariableOp"
  input: "resnet_model/batch_normalization_1/gamma"
  input: "resnet_model/batch_normalization_1/gamma/Initializer/ones"
  device: "/device:GPU:0"
  attr {
    key: "_class"
    value {
      list {
        s: "loc:@resnet_model/batch_normalization_1/gamma"
      }
    }
  }
  attr {
    key: "dtype"
    value {
      type: DT_FLOAT
    }
  }
}
node {
  name: "resnet_model/batch_normalization_1/gamma/Read/ReadVariableOp"
  op: "ReadVariableOp"
  input: "resnet_model/batch_normalization_1/gamma"
  device: "/device:GPU:0"
  attr {
    key: "_class"
    value {
      list {
        s: "loc:@resnet_model/batch_normalization_1/gamma"
      }
    }
  }
  attr {
    key: "_output_shapes"
    value {
      list {
        shape {
          dim {
            size: 8
          }
        }
      }
    }
  }
  attr {
    key: "dtype"
    value {
      type: DT_FLOAT
    }
  }
}
node {
  name: "resnet_model/batch_normalization_1/beta/Initializer/zeros"
  op: "Const"
  attr {
    key: "_class"
    value {
      list {
        s: "loc:@resnet_model/batch_normalization_1/beta"
      }
    }
  }
  attr {
    key: "_output_shapes"
    value {
      list {
        shape {
          dim {
            size: 8
          }
        }
      }
    }
  }
  attr {
    key: "dtype"
    value {
      type: DT_FLOAT
    }
  }
  attr {
    key: "value"
    value {
      tensor {
        dtype: DT_FLOAT
        tensor_shape {
          dim {
            size: 8
          }
        }
        float_val: 0.0
      }
    }
  }
}
node {
  name: "resnet_model/batch_normalization_1/beta"
  op: "VarHandleOp"
  device: "/device:GPU:0"
  attr {
    key: "_class"
    value {
      list {
        s: "loc:@resnet_model/batch_normalization_1/beta"
      }
    }
  }
  attr {
    key: "_output_shapes"
    value {
      list {
        shape {
        }
      }
    }
  }
  attr {
    key: "container"
    value {
      s: ""
    }
  }
  attr {
    key: "dtype"
    value {
      type: DT_FLOAT
    }
  }
  attr {
    key: "shape"
    value {
      shape {
        dim {
          size: 8
        }
      }
    }
  }
  attr {
    key: "shared_name"
    value {
      s: "resnet_model/batch_normalization_1/beta"
    }
  }
}
node {
  name: "resnet_model/batch_normalization_1/beta/IsInitialized/VarIsInitializedOp"
  op: "VarIsInitializedOp"
  input: "resnet_model/batch_normalization_1/beta"
  device: "/device:GPU:0"
  attr {
    key: "_output_shapes"
    value {
      list {
        shape {
        }
      }
    }
  }
}
node {
  name: "resnet_model/batch_normalization_1/beta/Assign"
  op: "AssignVariableOp"
  input: "resnet_model/batch_normalization_1/beta"
  input: "resnet_model/batch_normalization_1/beta/Initializer/zeros"
  device: "/device:GPU:0"
  attr {
    key: "_class"
    value {
      list {
        s: "loc:@resnet_model/batch_normalization_1/beta"
      }
    }
  }
  attr {
    key: "dtype"
    value {
      type: DT_FLOAT
    }
  }
}
node {
  name: "resnet_model/batch_normalization_1/beta/Read/ReadVariableOp"
  op: "ReadVariableOp"
  input: "resnet_model/batch_normalization_1/beta"
  device: "/device:GPU:0"
  attr {
    key: "_class"
    value {
      list {
        s: "loc:@resnet_model/batch_normalization_1/beta"
      }
    }
  }
  attr {
    key: "_output_shapes"
    value {
      list {
        shape {
          dim {
            size: 8
          }
        }
      }
    }
  }
  attr {
    key: "dtype"
    value {
      type: DT_FLOAT
    }
  }
}
node {
  name: "resnet_model/batch_normalization_1/moving_mean/Initializer/zeros"
  op: "Const"
  attr {
    key: "_class"
    value {
      list {
        s: "loc:@resnet_model/batch_normalization_1/moving_mean"
      }
    }
  }
  attr {
    key: "_output_shapes"
    value {
      list {
        shape {
          dim {
            size: 8
          }
        }
      }
    }
  }
  attr {
    key: "dtype"
    value {
      type: DT_FLOAT
    }
  }
  attr {
    key: "value"
    value {
      tensor {
        dtype: DT_FLOAT
        tensor_shape {
          dim {
            size: 8
          }
        }
        float_val: 0.0
      }
    }
  }
}
node {
  name: "resnet_model/batch_normalization_1/moving_mean"
  op: "VarHandleOp"
  device: "/device:GPU:0"
  attr {
    key: "_class"
    value {
      list {
        s: "loc:@resnet_model/batch_normalization_1/moving_mean"
      }
    }
  }
  attr {
    key: "_output_shapes"
    value {
      list {
        shape {
        }
      }
    }
  }
  attr {
    key: "container"
    value {
      s: ""
    }
  }
  attr {
    key: "dtype"
    value {
      type: DT_FLOAT
    }
  }
  attr {
    key: "shape"
    value {
      shape {
        dim {
          size: 8
        }
      }
    }
  }
  attr {
    key: "shared_name"
    value {
      s: "resnet_model/batch_normalization_1/moving_mean"
    }
  }
}
node {
  name: "resnet_model/batch_normalization_1/moving_mean/IsInitialized/VarIsInitializedOp"
  op: "VarIsInitializedOp"
  input: "resnet_model/batch_normalization_1/moving_mean"
  device: "/device:GPU:0"
  attr {
    key: "_output_shapes"
    value {
      list {
        shape {
        }
      }
    }
  }
}
node {
  name: "resnet_model/batch_normalization_1/moving_mean/Assign"
  op: "AssignVariableOp"
  input: "resnet_model/batch_normalization_1/moving_mean"
  input: "resnet_model/batch_normalization_1/moving_mean/Initializer/zeros"
  device: "/device:GPU:0"
  attr {
    key: "_class"
    value {
      list {
        s: "loc:@resnet_model/batch_normalization_1/moving_mean"
      }
    }
  }
  attr {
    key: "dtype"
    value {
      type: DT_FLOAT
    }
  }
}
node {
  name: "resnet_model/batch_normalization_1/moving_mean/Read/ReadVariableOp"
  op: "ReadVariableOp"
  input: "resnet_model/batch_normalization_1/moving_mean"
  device: "/device:GPU:0"
  attr {
    key: "_class"
    value {
      list {
        s: "loc:@resnet_model/batch_normalization_1/moving_mean"
      }
    }
  }
  attr {
    key: "_output_shapes"
    value {
      list {
        shape {
          dim {
            size: 8
          }
        }
      }
    }
  }
  attr {
    key: "dtype"
    value {
      type: DT_FLOAT
    }
  }
}
node {
  name: "resnet_model/batch_normalization_1/moving_variance/Initializer/ones"
  op: "Const"
  attr {
    key: "_class"
    value {
      list {
        s: "loc:@resnet_model/batch_normalization_1/moving_variance"
      }
    }
  }
  attr {
    key: "_output_shapes"
    value {
      list {
        shape {
          dim {
            size: 8
          }
        }
      }
    }
  }
  attr {
    key: "dtype"
    value {
      type: DT_FLOAT
    }
  }
  attr {
    key: "value"
    value {
      tensor {
        dtype: DT_FLOAT
        tensor_shape {
          dim {
            size: 8
          }
        }
        float_val: 1.0
      }
    }
  }
}
node {
  name: "resnet_model/batch_normalization_1/moving_variance"
  op: "VarHandleOp"
  device: "/device:GPU:0"
  attr {
    key: "_class"
    value {
      list {
        s: "loc:@resnet_model/batch_normalization_1/moving_variance"
      }
    }
  }
  attr {
    key: "_output_shapes"
    value {
      list {
        shape {
        }
      }
    }
  }
  attr {
    key: "container"
    value {
      s: ""
    }
  }
  attr {
    key: "dtype"
    value {
      type: DT_FLOAT
    }
  }
  attr {
    key: "shape"
    value {
      shape {
        dim {
          size: 8
        }
      }
    }
  }
  attr {
    key: "shared_name"
    value {
      s: "resnet_model/batch_normalization_1/moving_variance"
    }
  }
}
node {
  name: "resnet_model/batch_normalization_1/moving_variance/IsInitialized/VarIsInitializedOp"
  op: "VarIsInitializedOp"
  input: "resnet_model/batch_normalization_1/moving_variance"
  device: "/device:GPU:0"
  attr {
    key: "_output_shapes"
    value {
      list {
        shape {
        }
      }
    }
  }
}
node {
  name: "resnet_model/batch_normalization_1/moving_variance/Assign"
  op: "AssignVariableOp"
  input: "resnet_model/batch_normalization_1/moving_variance"
  input: "resnet_model/batch_normalization_1/moving_variance/Initializer/ones"
  device: "/device:GPU:0"
  attr {
    key: "_class"
    value {
      list {
        s: "loc:@resnet_model/batch_normalization_1/moving_variance"
      }
    }
  }
  attr {
    key: "dtype"
    value {
      type: DT_FLOAT
    }
  }
}
node {
  name: "resnet_model/batch_normalization_1/moving_variance/Read/ReadVariableOp"
  op: "ReadVariableOp"
  input: "resnet_model/batch_normalization_1/moving_variance"
  device: "/device:GPU:0"
  attr {
    key: "_class"
    value {
      list {
        s: "loc:@resnet_model/batch_normalization_1/moving_variance"
      }
    }
  }
  attr {
    key: "_output_shapes"
    value {
      list {
        shape {
          dim {
            size: 8
          }
        }
      }
    }
  }
  attr {
    key: "dtype"
    value {
      type: DT_FLOAT
    }
  }
}
node {
  name: "resnet_model/batch_normalization_1/ReadVariableOp"
  op: "ReadVariableOp"
  input: "resnet_model/batch_normalization_1/gamma"
  device: "/device:GPU:0"
  attr {
    key: "_output_shapes"
    value {
      list {
        shape {
          dim {
            size: 8
          }
        }
      }
    }
  }
  attr {
    key: "dtype"
    value {
      type: DT_FLOAT
    }
  }
}
node {
  name: "resnet_model/batch_normalization_1/ReadVariableOp_1"
  op: "ReadVariableOp"
  input: "resnet_model/batch_normalization_1/beta"
  device: "/device:GPU:0"
  attr {
    key: "_output_shapes"
    value {
      list {
        shape {
          dim {
            size: 8
          }
        }
      }
    }
  }
  attr {
    key: "dtype"
    value {
      type: DT_FLOAT
    }
  }
}
node {
  name: "resnet_model/batch_normalization_1/Const"
  op: "Const"
  device: "/device:GPU:0"
  attr {
    key: "_output_shapes"
    value {
      list {
        shape {
          dim {
          }
        }
      }
    }
  }
  attr {
    key: "dtype"
    value {
      type: DT_FLOAT
    }
  }
  attr {
    key: "value"
    value {
      tensor {
        dtype: DT_FLOAT
        tensor_shape {
          dim {
          }
        }
      }
    }
  }
}
node {
  name: "resnet_model/batch_normalization_1/Const_1"
  op: "Const"
  device: "/device:GPU:0"
  attr {
    key: "_output_shapes"
    value {
      list {
        shape {
          dim {
          }
        }
      }
    }
  }
  attr {
    key: "dtype"
    value {
      type: DT_FLOAT
    }
  }
  attr {
    key: "value"
    value {
      tensor {
        dtype: DT_FLOAT
        tensor_shape {
          dim {
          }
        }
      }
    }
  }
}
node {
  name: "resnet_model/batch_normalization_1/FusedBatchNorm"
  op: "FusedBatchNorm"
  input: "resnet_model/conv2d_2/Conv2D"
  input: "resnet_model/batch_normalization_1/ReadVariableOp"
  input: "resnet_model/batch_normalization_1/ReadVariableOp_1"
  input: "resnet_model/batch_normalization_1/Const"
  input: "resnet_model/batch_normalization_1/Const_1"
  device: "/device:GPU:0"
  attr {
    key: "T"
    value {
      type: DT_FLOAT
    }
  }
  attr {
    key: "_output_shapes"
    value {
      list {
        shape {
          dim {
            size: -1
          }
          dim {
            size: 8
          }
          dim {
            size: 512
          }
          dim {
            size: 512
          }
        }
        shape {
          dim {
            size: 8
          }
        }
        shape {
          dim {
            size: 8
          }
        }
        shape {
          dim {
            size: 8
          }
        }
        shape {
          dim {
            size: 8
          }
        }
      }
    }
  }
  attr {
    key: "data_format"
    value {
      s: "NCHW"
    }
  }
  attr {
    key: "epsilon"
    value {
      f: 1.0009999641624745e-05
    }
  }
  attr {
    key: "is_training"
    value {
      b: true
    }
  }
}
node {
  name: "resnet_model/batch_normalization_1/Const_2"
  op: "Const"
  device: "/device:GPU:0"
  attr {
    key: "_output_shapes"
    value {
      list {
        shape {
        }
      }
    }
  }
  attr {
    key: "dtype"
    value {
      type: DT_FLOAT
    }
  }
  attr {
    key: "value"
    value {
      tensor {
        dtype: DT_FLOAT
        tensor_shape {
        }
        float_val: 0.996999979019165
      }
    }
  }
}
node {
  name: "resnet_model/batch_normalization_1/AssignMovingAvg/Read/ReadVariableOp"
  op: "ReadVariableOp"
  input: "resnet_model/batch_normalization_1/moving_mean"
  device: "/device:GPU:0"
  attr {
    key: "_output_shapes"
    value {
      list {
        shape {
          dim {
            size: 8
          }
        }
      }
    }
  }
  attr {
    key: "dtype"
    value {
      type: DT_FLOAT
    }
  }
}
node {
  name: "resnet_model/batch_normalization_1/AssignMovingAvg/Identity"
  op: "Identity"
  input: "resnet_model/batch_normalization_1/AssignMovingAvg/Read/ReadVariableOp"
  device: "/device:GPU:0"
  attr {
    key: "T"
    value {
      type: DT_FLOAT
    }
  }
  attr {
    key: "_output_shapes"
    value {
      list {
        shape {
          dim {
            size: 8
          }
        }
      }
    }
  }
}
node {
  name: "resnet_model/batch_normalization_1/AssignMovingAvg/sub/x"
  op: "Const"
  device: "/device:GPU:0"
  attr {
    key: "_class"
    value {
      list {
        s: "loc:@resnet_model/batch_normalization_1/AssignMovingAvg/Read/ReadVariableOp"
      }
    }
  }
  attr {
    key: "_output_shapes"
    value {
      list {
        shape {
        }
      }
    }
  }
  attr {
    key: "dtype"
    value {
      type: DT_FLOAT
    }
  }
  attr {
    key: "value"
    value {
      tensor {
        dtype: DT_FLOAT
        tensor_shape {
        }
        float_val: 1.0
      }
    }
  }
}
node {
  name: "resnet_model/batch_normalization_1/AssignMovingAvg/sub"
  op: "Sub"
  input: "resnet_model/batch_normalization_1/AssignMovingAvg/sub/x"
  input: "resnet_model/batch_normalization_1/Const_2"
  device: "/device:GPU:0"
  attr {
    key: "T"
    value {
      type: DT_FLOAT
    }
  }
  attr {
    key: "_class"
    value {
      list {
        s: "loc:@resnet_model/batch_normalization_1/AssignMovingAvg/Read/ReadVariableOp"
      }
    }
  }
  attr {
    key: "_output_shapes"
    value {
      list {
        shape {
        }
      }
    }
  }
}
node {
  name: "resnet_model/batch_normalization_1/AssignMovingAvg/ReadVariableOp"
  op: "ReadVariableOp"
  input: "resnet_model/batch_normalization_1/moving_mean"
  device: "/device:GPU:0"
  attr {
    key: "_output_shapes"
    value {
      list {
        shape {
          dim {
            size: 8
          }
        }
      }
    }
  }
  attr {
    key: "dtype"
    value {
      type: DT_FLOAT
    }
  }
}
node {
  name: "resnet_model/batch_normalization_1/AssignMovingAvg/sub_1"
  op: "Sub"
  input: "resnet_model/batch_normalization_1/AssignMovingAvg/ReadVariableOp"
  input: "resnet_model/batch_normalization_1/FusedBatchNorm:1"
  device: "/device:GPU:0"
  attr {
    key: "T"
    value {
      type: DT_FLOAT
    }
  }
  attr {
    key: "_class"
    value {
      list {
        s: "loc:@resnet_model/batch_normalization_1/AssignMovingAvg/Read/ReadVariableOp"
      }
    }
  }
  attr {
    key: "_output_shapes"
    value {
      list {
        shape {
          dim {
            size: 8
          }
        }
      }
    }
  }
}
node {
  name: "resnet_model/batch_normalization_1/AssignMovingAvg/mul"
  op: "Mul"
  input: "resnet_model/batch_normalization_1/AssignMovingAvg/sub_1"
  input: "resnet_model/batch_normalization_1/AssignMovingAvg/sub"
  device: "/device:GPU:0"
  attr {
    key: "T"
    value {
      type: DT_FLOAT
    }
  }
  attr {
    key: "_class"
    value {
      list {
        s: "loc:@resnet_model/batch_normalization_1/AssignMovingAvg/Read/ReadVariableOp"
      }
    }
  }
  attr {
    key: "_output_shapes"
    value {
      list {
        shape {
          dim {
            size: 8
          }
        }
      }
    }
  }
}
node {
  name: "resnet_model/batch_normalization_1/AssignMovingAvg/AssignSubVariableOp"
  op: "AssignSubVariableOp"
  input: "resnet_model/batch_normalization_1/moving_mean"
  input: "resnet_model/batch_normalization_1/AssignMovingAvg/mul"
  device: "/device:GPU:0"
  attr {
    key: "_class"
    value {
      list {
        s: "loc:@resnet_model/batch_normalization_1/AssignMovingAvg/Read/ReadVariableOp"
      }
    }
  }
  attr {
    key: "dtype"
    value {
      type: DT_FLOAT
    }
  }
}
node {
  name: "resnet_model/batch_normalization_1/AssignMovingAvg/ReadVariableOp_1"
  op: "ReadVariableOp"
  input: "resnet_model/batch_normalization_1/moving_mean"
  input: "^resnet_model/batch_normalization_1/AssignMovingAvg/AssignSubVariableOp"
  device: "/device:GPU:0"
  attr {
    key: "_class"
    value {
      list {
        s: "loc:@resnet_model/batch_normalization_1/AssignMovingAvg/Read/ReadVariableOp"
      }
    }
  }
  attr {
    key: "_output_shapes"
    value {
      list {
        shape {
          dim {
            size: 8
          }
        }
      }
    }
  }
  attr {
    key: "dtype"
    value {
      type: DT_FLOAT
    }
  }
}
node {
  name: "resnet_model/batch_normalization_1/AssignMovingAvg_1/Read/ReadVariableOp"
  op: "ReadVariableOp"
  input: "resnet_model/batch_normalization_1/moving_variance"
  device: "/device:GPU:0"
  attr {
    key: "_output_shapes"
    value {
      list {
        shape {
          dim {
            size: 8
          }
        }
      }
    }
  }
  attr {
    key: "dtype"
    value {
      type: DT_FLOAT
    }
  }
}
node {
  name: "resnet_model/batch_normalization_1/AssignMovingAvg_1/Identity"
  op: "Identity"
  input: "resnet_model/batch_normalization_1/AssignMovingAvg_1/Read/ReadVariableOp"
  device: "/device:GPU:0"
  attr {
    key: "T"
    value {
      type: DT_FLOAT
    }
  }
  attr {
    key: "_output_shapes"
    value {
      list {
        shape {
          dim {
            size: 8
          }
        }
      }
    }
  }
}
node {
  name: "resnet_model/batch_normalization_1/AssignMovingAvg_1/sub/x"
  op: "Const"
  device: "/device:GPU:0"
  attr {
    key: "_class"
    value {
      list {
        s: "loc:@resnet_model/batch_normalization_1/AssignMovingAvg_1/Read/ReadVariableOp"
      }
    }
  }
  attr {
    key: "_output_shapes"
    value {
      list {
        shape {
        }
      }
    }
  }
  attr {
    key: "dtype"
    value {
      type: DT_FLOAT
    }
  }
  attr {
    key: "value"
    value {
      tensor {
        dtype: DT_FLOAT
        tensor_shape {
        }
        float_val: 1.0
      }
    }
  }
}
node {
  name: "resnet_model/batch_normalization_1/AssignMovingAvg_1/sub"
  op: "Sub"
  input: "resnet_model/batch_normalization_1/AssignMovingAvg_1/sub/x"
  input: "resnet_model/batch_normalization_1/Const_2"
  device: "/device:GPU:0"
  attr {
    key: "T"
    value {
      type: DT_FLOAT
    }
  }
  attr {
    key: "_class"
    value {
      list {
        s: "loc:@resnet_model/batch_normalization_1/AssignMovingAvg_1/Read/ReadVariableOp"
      }
    }
  }
  attr {
    key: "_output_shapes"
    value {
      list {
        shape {
        }
      }
    }
  }
}
node {
  name: "resnet_model/batch_normalization_1/AssignMovingAvg_1/ReadVariableOp"
  op: "ReadVariableOp"
  input: "resnet_model/batch_normalization_1/moving_variance"
  device: "/device:GPU:0"
  attr {
    key: "_output_shapes"
    value {
      list {
        shape {
          dim {
            size: 8
          }
        }
      }
    }
  }
  attr {
    key: "dtype"
    value {
      type: DT_FLOAT
    }
  }
}
node {
  name: "resnet_model/batch_normalization_1/AssignMovingAvg_1/sub_1"
  op: "Sub"
  input: "resnet_model/batch_normalization_1/AssignMovingAvg_1/ReadVariableOp"
  input: "resnet_model/batch_normalization_1/FusedBatchNorm:2"
  device: "/device:GPU:0"
  attr {
    key: "T"
    value {
      type: DT_FLOAT
    }
  }
  attr {
    key: "_class"
    value {
      list {
        s: "loc:@resnet_model/batch_normalization_1/AssignMovingAvg_1/Read/ReadVariableOp"
      }
    }
  }
  attr {
    key: "_output_shapes"
    value {
      list {
        shape {
          dim {
            size: 8
          }
        }
      }
    }
  }
}
node {
  name: "resnet_model/batch_normalization_1/AssignMovingAvg_1/mul"
  op: "Mul"
  input: "resnet_model/batch_normalization_1/AssignMovingAvg_1/sub_1"
  input: "resnet_model/batch_normalization_1/AssignMovingAvg_1/sub"
  device: "/device:GPU:0"
  attr {
    key: "T"
    value {
      type: DT_FLOAT
    }
  }
  attr {
    key: "_class"
    value {
      list {
        s: "loc:@resnet_model/batch_normalization_1/AssignMovingAvg_1/Read/ReadVariableOp"
      }
    }
  }
  attr {
    key: "_output_shapes"
    value {
      list {
        shape {
          dim {
            size: 8
          }
        }
      }
    }
  }
}
node {
  name: "resnet_model/batch_normalization_1/AssignMovingAvg_1/AssignSubVariableOp"
  op: "AssignSubVariableOp"
  input: "resnet_model/batch_normalization_1/moving_variance"
  input: "resnet_model/batch_normalization_1/AssignMovingAvg_1/mul"
  device: "/device:GPU:0"
  attr {
    key: "_class"
    value {
      list {
        s: "loc:@resnet_model/batch_normalization_1/AssignMovingAvg_1/Read/ReadVariableOp"
      }
    }
  }
  attr {
    key: "dtype"
    value {
      type: DT_FLOAT
    }
  }
}
node {
  name: "resnet_model/batch_normalization_1/AssignMovingAvg_1/ReadVariableOp_1"
  op: "ReadVariableOp"
  input: "resnet_model/batch_normalization_1/moving_variance"
  input: "^resnet_model/batch_normalization_1/AssignMovingAvg_1/AssignSubVariableOp"
  device: "/device:GPU:0"
  attr {
    key: "_class"
    value {
      list {
        s: "loc:@resnet_model/batch_normalization_1/AssignMovingAvg_1/Read/ReadVariableOp"
      }
    }
  }
  attr {
    key: "_output_shapes"
    value {
      list {
        shape {
          dim {
            size: 8
          }
        }
      }
    }
  }
  attr {
    key: "dtype"
    value {
      type: DT_FLOAT
    }
  }
}
node {
  name: "resnet_model/Relu_1"
  op: "Relu"
  input: "resnet_model/batch_normalization_1/FusedBatchNorm"
  device: "/device:GPU:0"
  attr {
    key: "T"
    value {
      type: DT_FLOAT
    }
  }
  attr {
    key: "_output_shapes"
    value {
      list {
        shape {
          dim {
            size: -1
          }
          dim {
            size: 8
          }
          dim {
            size: 512
          }
          dim {
            size: 512
          }
        }
      }
    }
  }
}
node {
  name: "resnet_model/conv2d_3/kernel/Initializer/truncated_normal/shape"
  op: "Const"
  attr {
    key: "_class"
    value {
      list {
        s: "loc:@resnet_model/conv2d_3/kernel"
      }
    }
  }
  attr {
    key: "_output_shapes"
    value {
      list {
        shape {
          dim {
            size: 4
          }
        }
      }
    }
  }
  attr {
    key: "dtype"
    value {
      type: DT_INT32
    }
  }
  attr {
    key: "value"
    value {
      tensor {
        dtype: DT_INT32
        tensor_shape {
          dim {
            size: 4
          }
        }
        tensor_content: "\003\000\000\000\003\000\000\000\010\000\000\000\010\000\000\000"
      }
    }
  }
}
node {
  name: "resnet_model/conv2d_3/kernel/Initializer/truncated_normal/mean"
  op: "Const"
  attr {
    key: "_class"
    value {
      list {
        s: "loc:@resnet_model/conv2d_3/kernel"
      }
    }
  }
  attr {
    key: "_output_shapes"
    value {
      list {
        shape {
        }
      }
    }
  }
  attr {
    key: "dtype"
    value {
      type: DT_FLOAT
    }
  }
  attr {
    key: "value"
    value {
      tensor {
        dtype: DT_FLOAT
        tensor_shape {
        }
        float_val: 0.0
      }
    }
  }
}
node {
  name: "resnet_model/conv2d_3/kernel/Initializer/truncated_normal/stddev"
  op: "Const"
  attr {
    key: "_class"
    value {
      list {
        s: "loc:@resnet_model/conv2d_3/kernel"
      }
    }
  }
  attr {
    key: "_output_shapes"
    value {
      list {
        shape {
        }
      }
    }
  }
  attr {
    key: "dtype"
    value {
      type: DT_FLOAT
    }
  }
  attr {
    key: "value"
    value {
      tensor {
        dtype: DT_FLOAT
        tensor_shape {
        }
        float_val: 0.1339787244796753
      }
    }
  }
}
node {
  name: "resnet_model/conv2d_3/kernel/Initializer/truncated_normal/TruncatedNormal"
  op: "TruncatedNormal"
  input: "resnet_model/conv2d_3/kernel/Initializer/truncated_normal/shape"
  attr {
    key: "T"
    value {
      type: DT_INT32
    }
  }
  attr {
    key: "_class"
    value {
      list {
        s: "loc:@resnet_model/conv2d_3/kernel"
      }
    }
  }
  attr {
    key: "_output_shapes"
    value {
      list {
        shape {
          dim {
            size: 3
          }
          dim {
            size: 3
          }
          dim {
            size: 8
          }
          dim {
            size: 8
          }
        }
      }
    }
  }
  attr {
    key: "dtype"
    value {
      type: DT_FLOAT
    }
  }
  attr {
    key: "seed"
    value {
      i: 0
    }
  }
  attr {
    key: "seed2"
    value {
      i: 0
    }
  }
}
node {
  name: "resnet_model/conv2d_3/kernel/Initializer/truncated_normal/mul"
  op: "Mul"
  input: "resnet_model/conv2d_3/kernel/Initializer/truncated_normal/TruncatedNormal"
  input: "resnet_model/conv2d_3/kernel/Initializer/truncated_normal/stddev"
  attr {
    key: "T"
    value {
      type: DT_FLOAT
    }
  }
  attr {
    key: "_class"
    value {
      list {
        s: "loc:@resnet_model/conv2d_3/kernel"
      }
    }
  }
  attr {
    key: "_output_shapes"
    value {
      list {
        shape {
          dim {
            size: 3
          }
          dim {
            size: 3
          }
          dim {
            size: 8
          }
          dim {
            size: 8
          }
        }
      }
    }
  }
}
node {
  name: "resnet_model/conv2d_3/kernel/Initializer/truncated_normal"
  op: "Add"
  input: "resnet_model/conv2d_3/kernel/Initializer/truncated_normal/mul"
  input: "resnet_model/conv2d_3/kernel/Initializer/truncated_normal/mean"
  attr {
    key: "T"
    value {
      type: DT_FLOAT
    }
  }
  attr {
    key: "_class"
    value {
      list {
        s: "loc:@resnet_model/conv2d_3/kernel"
      }
    }
  }
  attr {
    key: "_output_shapes"
    value {
      list {
        shape {
          dim {
            size: 3
          }
          dim {
            size: 3
          }
          dim {
            size: 8
          }
          dim {
            size: 8
          }
        }
      }
    }
  }
}
node {
  name: "resnet_model/conv2d_3/kernel"
  op: "VarHandleOp"
  device: "/device:GPU:0"
  attr {
    key: "_class"
    value {
      list {
        s: "loc:@resnet_model/conv2d_3/kernel"
      }
    }
  }
  attr {
    key: "_output_shapes"
    value {
      list {
        shape {
        }
      }
    }
  }
  attr {
    key: "container"
    value {
      s: ""
    }
  }
  attr {
    key: "dtype"
    value {
      type: DT_FLOAT
    }
  }
  attr {
    key: "shape"
    value {
      shape {
        dim {
          size: 3
        }
        dim {
          size: 3
        }
        dim {
          size: 8
        }
        dim {
          size: 8
        }
      }
    }
  }
  attr {
    key: "shared_name"
    value {
      s: "resnet_model/conv2d_3/kernel"
    }
  }
}
node {
  name: "resnet_model/conv2d_3/kernel/IsInitialized/VarIsInitializedOp"
  op: "VarIsInitializedOp"
  input: "resnet_model/conv2d_3/kernel"
  device: "/device:GPU:0"
  attr {
    key: "_output_shapes"
    value {
      list {
        shape {
        }
      }
    }
  }
}
node {
  name: "resnet_model/conv2d_3/kernel/Assign"
  op: "AssignVariableOp"
  input: "resnet_model/conv2d_3/kernel"
  input: "resnet_model/conv2d_3/kernel/Initializer/truncated_normal"
  device: "/device:GPU:0"
  attr {
    key: "_class"
    value {
      list {
        s: "loc:@resnet_model/conv2d_3/kernel"
      }
    }
  }
  attr {
    key: "dtype"
    value {
      type: DT_FLOAT
    }
  }
}
node {
  name: "resnet_model/conv2d_3/kernel/Read/ReadVariableOp"
  op: "ReadVariableOp"
  input: "resnet_model/conv2d_3/kernel"
  device: "/device:GPU:0"
  attr {
    key: "_class"
    value {
      list {
        s: "loc:@resnet_model/conv2d_3/kernel"
      }
    }
  }
  attr {
    key: "_output_shapes"
    value {
      list {
        shape {
          dim {
            size: 3
          }
          dim {
            size: 3
          }
          dim {
            size: 8
          }
          dim {
            size: 8
          }
        }
      }
    }
  }
  attr {
    key: "dtype"
    value {
      type: DT_FLOAT
    }
  }
}
node {
  name: "resnet_model/conv2d_3/dilation_rate"
  op: "Const"
  device: "/device:GPU:0"
  attr {
    key: "_output_shapes"
    value {
      list {
        shape {
          dim {
            size: 2
          }
        }
      }
    }
  }
  attr {
    key: "dtype"
    value {
      type: DT_INT32
    }
  }
  attr {
    key: "value"
    value {
      tensor {
        dtype: DT_INT32
        tensor_shape {
          dim {
            size: 2
          }
        }
        tensor_content: "\001\000\000\000\001\000\000\000"
      }
    }
  }
}
node {
  name: "resnet_model/conv2d_3/Conv2D/ReadVariableOp"
  op: "ReadVariableOp"
  input: "resnet_model/conv2d_3/kernel"
  device: "/device:GPU:0"
  attr {
    key: "_output_shapes"
    value {
      list {
        shape {
          dim {
            size: 3
          }
          dim {
            size: 3
          }
          dim {
            size: 8
          }
          dim {
            size: 8
          }
        }
      }
    }
  }
  attr {
    key: "dtype"
    value {
      type: DT_FLOAT
    }
  }
}
node {
  name: "resnet_model/conv2d_3/Conv2D"
  op: "Conv2D"
  input: "resnet_model/Relu_1"
  input: "resnet_model/conv2d_3/Conv2D/ReadVariableOp"
  device: "/device:GPU:0"
  attr {
    key: "T"
    value {
      type: DT_FLOAT
    }
  }
  attr {
    key: "_output_shapes"
    value {
      list {
        shape {
          dim {
            size: -1
          }
          dim {
            size: 8
          }
          dim {
            size: 512
          }
          dim {
            size: 512
          }
        }
      }
    }
  }
  attr {
    key: "data_format"
    value {
      s: "NCHW"
    }
  }
  attr {
    key: "dilations"
    value {
      list {
        i: 1
        i: 1
        i: 1
        i: 1
      }
    }
  }
  attr {
    key: "padding"
    value {
      s: "SAME"
    }
  }
  attr {
    key: "strides"
    value {
      list {
        i: 1
        i: 1
        i: 1
        i: 1
      }
    }
  }
  attr {
    key: "use_cudnn_on_gpu"
    value {
      b: true
    }
  }
}
node {
  name: "resnet_model/add"
  op: "Add"
  input: "resnet_model/conv2d_3/Conv2D"
  input: "resnet_model/conv2d_1/Conv2D"
  device: "/device:GPU:0"
  attr {
    key: "T"
    value {
      type: DT_FLOAT
    }
  }
  attr {
    key: "_output_shapes"
    value {
      list {
        shape {
          dim {
            size: -1
          }
          dim {
            size: 8
          }
          dim {
            size: 512
          }
          dim {
            size: 512
          }
        }
      }
    }
  }
}
node {
  name: "resnet_model/batch_normalization_2/gamma/Initializer/ones"
  op: "Const"
  attr {
    key: "_class"
    value {
      list {
        s: "loc:@resnet_model/batch_normalization_2/gamma"
      }
    }
  }
  attr {
    key: "_output_shapes"
    value {
      list {
        shape {
          dim {
            size: 8
          }
        }
      }
    }
  }
  attr {
    key: "dtype"
    value {
      type: DT_FLOAT
    }
  }
  attr {
    key: "value"
    value {
      tensor {
        dtype: DT_FLOAT
        tensor_shape {
          dim {
            size: 8
          }
        }
        float_val: 1.0
      }
    }
  }
}
node {
  name: "resnet_model/batch_normalization_2/gamma"
  op: "VarHandleOp"
  device: "/device:GPU:0"
  attr {
    key: "_class"
    value {
      list {
        s: "loc:@resnet_model/batch_normalization_2/gamma"
      }
    }
  }
  attr {
    key: "_output_shapes"
    value {
      list {
        shape {
        }
      }
    }
  }
  attr {
    key: "container"
    value {
      s: ""
    }
  }
  attr {
    key: "dtype"
    value {
      type: DT_FLOAT
    }
  }
  attr {
    key: "shape"
    value {
      shape {
        dim {
          size: 8
        }
      }
    }
  }
  attr {
    key: "shared_name"
    value {
      s: "resnet_model/batch_normalization_2/gamma"
    }
  }
}
node {
  name: "resnet_model/batch_normalization_2/gamma/IsInitialized/VarIsInitializedOp"
  op: "VarIsInitializedOp"
  input: "resnet_model/batch_normalization_2/gamma"
  device: "/device:GPU:0"
  attr {
    key: "_output_shapes"
    value {
      list {
        shape {
        }
      }
    }
  }
}
node {
  name: "resnet_model/batch_normalization_2/gamma/Assign"
  op: "AssignVariableOp"
  input: "resnet_model/batch_normalization_2/gamma"
  input: "resnet_model/batch_normalization_2/gamma/Initializer/ones"
  device: "/device:GPU:0"
  attr {
    key: "_class"
    value {
      list {
        s: "loc:@resnet_model/batch_normalization_2/gamma"
      }
    }
  }
  attr {
    key: "dtype"
    value {
      type: DT_FLOAT
    }
  }
}
node {
  name: "resnet_model/batch_normalization_2/gamma/Read/ReadVariableOp"
  op: "ReadVariableOp"
  input: "resnet_model/batch_normalization_2/gamma"
  device: "/device:GPU:0"
  attr {
    key: "_class"
    value {
      list {
        s: "loc:@resnet_model/batch_normalization_2/gamma"
      }
    }
  }
  attr {
    key: "_output_shapes"
    value {
      list {
        shape {
          dim {
            size: 8
          }
        }
      }
    }
  }
  attr {
    key: "dtype"
    value {
      type: DT_FLOAT
    }
  }
}
node {
  name: "resnet_model/batch_normalization_2/beta/Initializer/zeros"
  op: "Const"
  attr {
    key: "_class"
    value {
      list {
        s: "loc:@resnet_model/batch_normalization_2/beta"
      }
    }
  }
  attr {
    key: "_output_shapes"
    value {
      list {
        shape {
          dim {
            size: 8
          }
        }
      }
    }
  }
  attr {
    key: "dtype"
    value {
      type: DT_FLOAT
    }
  }
  attr {
    key: "value"
    value {
      tensor {
        dtype: DT_FLOAT
        tensor_shape {
          dim {
            size: 8
          }
        }
        float_val: 0.0
      }
    }
  }
}
node {
  name: "resnet_model/batch_normalization_2/beta"
  op: "VarHandleOp"
  device: "/device:GPU:0"
  attr {
    key: "_class"
    value {
      list {
        s: "loc:@resnet_model/batch_normalization_2/beta"
      }
    }
  }
  attr {
    key: "_output_shapes"
    value {
      list {
        shape {
        }
      }
    }
  }
  attr {
    key: "container"
    value {
      s: ""
    }
  }
  attr {
    key: "dtype"
    value {
      type: DT_FLOAT
    }
  }
  attr {
    key: "shape"
    value {
      shape {
        dim {
          size: 8
        }
      }
    }
  }
  attr {
    key: "shared_name"
    value {
      s: "resnet_model/batch_normalization_2/beta"
    }
  }
}
node {
  name: "resnet_model/batch_normalization_2/beta/IsInitialized/VarIsInitializedOp"
  op: "VarIsInitializedOp"
  input: "resnet_model/batch_normalization_2/beta"
  device: "/device:GPU:0"
  attr {
    key: "_output_shapes"
    value {
      list {
        shape {
        }
      }
    }
  }
}
node {
  name: "resnet_model/batch_normalization_2/beta/Assign"
  op: "AssignVariableOp"
  input: "resnet_model/batch_normalization_2/beta"
  input: "resnet_model/batch_normalization_2/beta/Initializer/zeros"
  device: "/device:GPU:0"
  attr {
    key: "_class"
    value {
      list {
        s: "loc:@resnet_model/batch_normalization_2/beta"
      }
    }
  }
  attr {
    key: "dtype"
    value {
      type: DT_FLOAT
    }
  }
}
node {
  name: "resnet_model/batch_normalization_2/beta/Read/ReadVariableOp"
  op: "ReadVariableOp"
  input: "resnet_model/batch_normalization_2/beta"
  device: "/device:GPU:0"
  attr {
    key: "_class"
    value {
      list {
        s: "loc:@resnet_model/batch_normalization_2/beta"
      }
    }
  }
  attr {
    key: "_output_shapes"
    value {
      list {
        shape {
          dim {
            size: 8
          }
        }
      }
    }
  }
  attr {
    key: "dtype"
    value {
      type: DT_FLOAT
    }
  }
}
node {
  name: "resnet_model/batch_normalization_2/moving_mean/Initializer/zeros"
  op: "Const"
  attr {
    key: "_class"
    value {
      list {
        s: "loc:@resnet_model/batch_normalization_2/moving_mean"
      }
    }
  }
  attr {
    key: "_output_shapes"
    value {
      list {
        shape {
          dim {
            size: 8
          }
        }
      }
    }
  }
  attr {
    key: "dtype"
    value {
      type: DT_FLOAT
    }
  }
  attr {
    key: "value"
    value {
      tensor {
        dtype: DT_FLOAT
        tensor_shape {
          dim {
            size: 8
          }
        }
        float_val: 0.0
      }
    }
  }
}
node {
  name: "resnet_model/batch_normalization_2/moving_mean"
  op: "VarHandleOp"
  device: "/device:GPU:0"
  attr {
    key: "_class"
    value {
      list {
        s: "loc:@resnet_model/batch_normalization_2/moving_mean"
      }
    }
  }
  attr {
    key: "_output_shapes"
    value {
      list {
        shape {
        }
      }
    }
  }
  attr {
    key: "container"
    value {
      s: ""
    }
  }
  attr {
    key: "dtype"
    value {
      type: DT_FLOAT
    }
  }
  attr {
    key: "shape"
    value {
      shape {
        dim {
          size: 8
        }
      }
    }
  }
  attr {
    key: "shared_name"
    value {
      s: "resnet_model/batch_normalization_2/moving_mean"
    }
  }
}
node {
  name: "resnet_model/batch_normalization_2/moving_mean/IsInitialized/VarIsInitializedOp"
  op: "VarIsInitializedOp"
  input: "resnet_model/batch_normalization_2/moving_mean"
  device: "/device:GPU:0"
  attr {
    key: "_output_shapes"
    value {
      list {
        shape {
        }
      }
    }
  }
}
node {
  name: "resnet_model/batch_normalization_2/moving_mean/Assign"
  op: "AssignVariableOp"
  input: "resnet_model/batch_normalization_2/moving_mean"
  input: "resnet_model/batch_normalization_2/moving_mean/Initializer/zeros"
  device: "/device:GPU:0"
  attr {
    key: "_class"
    value {
      list {
        s: "loc:@resnet_model/batch_normalization_2/moving_mean"
      }
    }
  }
  attr {
    key: "dtype"
    value {
      type: DT_FLOAT
    }
  }
}
node {
  name: "resnet_model/batch_normalization_2/moving_mean/Read/ReadVariableOp"
  op: "ReadVariableOp"
  input: "resnet_model/batch_normalization_2/moving_mean"
  device: "/device:GPU:0"
  attr {
    key: "_class"
    value {
      list {
        s: "loc:@resnet_model/batch_normalization_2/moving_mean"
      }
    }
  }
  attr {
    key: "_output_shapes"
    value {
      list {
        shape {
          dim {
            size: 8
          }
        }
      }
    }
  }
  attr {
    key: "dtype"
    value {
      type: DT_FLOAT
    }
  }
}
node {
  name: "resnet_model/batch_normalization_2/moving_variance/Initializer/ones"
  op: "Const"
  attr {
    key: "_class"
    value {
      list {
        s: "loc:@resnet_model/batch_normalization_2/moving_variance"
      }
    }
  }
  attr {
    key: "_output_shapes"
    value {
      list {
        shape {
          dim {
            size: 8
          }
        }
      }
    }
  }
  attr {
    key: "dtype"
    value {
      type: DT_FLOAT
    }
  }
  attr {
    key: "value"
    value {
      tensor {
        dtype: DT_FLOAT
        tensor_shape {
          dim {
            size: 8
          }
        }
        float_val: 1.0
      }
    }
  }
}
node {
  name: "resnet_model/batch_normalization_2/moving_variance"
  op: "VarHandleOp"
  device: "/device:GPU:0"
  attr {
    key: "_class"
    value {
      list {
        s: "loc:@resnet_model/batch_normalization_2/moving_variance"
      }
    }
  }
  attr {
    key: "_output_shapes"
    value {
      list {
        shape {
        }
      }
    }
  }
  attr {
    key: "container"
    value {
      s: ""
    }
  }
  attr {
    key: "dtype"
    value {
      type: DT_FLOAT
    }
  }
  attr {
    key: "shape"
    value {
      shape {
        dim {
          size: 8
        }
      }
    }
  }
  attr {
    key: "shared_name"
    value {
      s: "resnet_model/batch_normalization_2/moving_variance"
    }
  }
}
node {
  name: "resnet_model/batch_normalization_2/moving_variance/IsInitialized/VarIsInitializedOp"
  op: "VarIsInitializedOp"
  input: "resnet_model/batch_normalization_2/moving_variance"
  device: "/device:GPU:0"
  attr {
    key: "_output_shapes"
    value {
      list {
        shape {
        }
      }
    }
  }
}
node {
  name: "resnet_model/batch_normalization_2/moving_variance/Assign"
  op: "AssignVariableOp"
  input: "resnet_model/batch_normalization_2/moving_variance"
  input: "resnet_model/batch_normalization_2/moving_variance/Initializer/ones"
  device: "/device:GPU:0"
  attr {
    key: "_class"
    value {
      list {
        s: "loc:@resnet_model/batch_normalization_2/moving_variance"
      }
    }
  }
  attr {
    key: "dtype"
    value {
      type: DT_FLOAT
    }
  }
}
node {
  name: "resnet_model/batch_normalization_2/moving_variance/Read/ReadVariableOp"
  op: "ReadVariableOp"
  input: "resnet_model/batch_normalization_2/moving_variance"
  device: "/device:GPU:0"
  attr {
    key: "_class"
    value {
      list {
        s: "loc:@resnet_model/batch_normalization_2/moving_variance"
      }
    }
  }
  attr {
    key: "_output_shapes"
    value {
      list {
        shape {
          dim {
            size: 8
          }
        }
      }
    }
  }
  attr {
    key: "dtype"
    value {
      type: DT_FLOAT
    }
  }
}
node {
  name: "resnet_model/batch_normalization_2/ReadVariableOp"
  op: "ReadVariableOp"
  input: "resnet_model/batch_normalization_2/gamma"
  device: "/device:GPU:0"
  attr {
    key: "_output_shapes"
    value {
      list {
        shape {
          dim {
            size: 8
          }
        }
      }
    }
  }
  attr {
    key: "dtype"
    value {
      type: DT_FLOAT
    }
  }
}
node {
  name: "resnet_model/batch_normalization_2/ReadVariableOp_1"
  op: "ReadVariableOp"
  input: "resnet_model/batch_normalization_2/beta"
  device: "/device:GPU:0"
  attr {
    key: "_output_shapes"
    value {
      list {
        shape {
          dim {
            size: 8
          }
        }
      }
    }
  }
  attr {
    key: "dtype"
    value {
      type: DT_FLOAT
    }
  }
}
node {
  name: "resnet_model/batch_normalization_2/Const"
  op: "Const"
  device: "/device:GPU:0"
  attr {
    key: "_output_shapes"
    value {
      list {
        shape {
          dim {
          }
        }
      }
    }
  }
  attr {
    key: "dtype"
    value {
      type: DT_FLOAT
    }
  }
  attr {
    key: "value"
    value {
      tensor {
        dtype: DT_FLOAT
        tensor_shape {
          dim {
          }
        }
      }
    }
  }
}
node {
  name: "resnet_model/batch_normalization_2/Const_1"
  op: "Const"
  device: "/device:GPU:0"
  attr {
    key: "_output_shapes"
    value {
      list {
        shape {
          dim {
          }
        }
      }
    }
  }
  attr {
    key: "dtype"
    value {
      type: DT_FLOAT
    }
  }
  attr {
    key: "value"
    value {
      tensor {
        dtype: DT_FLOAT
        tensor_shape {
          dim {
          }
        }
      }
    }
  }
}
node {
  name: "resnet_model/batch_normalization_2/FusedBatchNorm"
  op: "FusedBatchNorm"
  input: "resnet_model/add"
  input: "resnet_model/batch_normalization_2/ReadVariableOp"
  input: "resnet_model/batch_normalization_2/ReadVariableOp_1"
  input: "resnet_model/batch_normalization_2/Const"
  input: "resnet_model/batch_normalization_2/Const_1"
  device: "/device:GPU:0"
  attr {
    key: "T"
    value {
      type: DT_FLOAT
    }
  }
  attr {
    key: "_output_shapes"
    value {
      list {
        shape {
          dim {
            size: -1
          }
          dim {
            size: 8
          }
          dim {
            size: 512
          }
          dim {
            size: 512
          }
        }
        shape {
          dim {
            size: 8
          }
        }
        shape {
          dim {
            size: 8
          }
        }
        shape {
          dim {
            size: 8
          }
        }
        shape {
          dim {
            size: 8
          }
        }
      }
    }
  }
  attr {
    key: "data_format"
    value {
      s: "NCHW"
    }
  }
  attr {
    key: "epsilon"
    value {
      f: 1.0009999641624745e-05
    }
  }
  attr {
    key: "is_training"
    value {
      b: true
    }
  }
}
node {
  name: "resnet_model/batch_normalization_2/Const_2"
  op: "Const"
  device: "/device:GPU:0"
  attr {
    key: "_output_shapes"
    value {
      list {
        shape {
        }
      }
    }
  }
  attr {
    key: "dtype"
    value {
      type: DT_FLOAT
    }
  }
  attr {
    key: "value"
    value {
      tensor {
        dtype: DT_FLOAT
        tensor_shape {
        }
        float_val: 0.996999979019165
      }
    }
  }
}
node {
  name: "resnet_model/batch_normalization_2/AssignMovingAvg/Read/ReadVariableOp"
  op: "ReadVariableOp"
  input: "resnet_model/batch_normalization_2/moving_mean"
  device: "/device:GPU:0"
  attr {
    key: "_output_shapes"
    value {
      list {
        shape {
          dim {
            size: 8
          }
        }
      }
    }
  }
  attr {
    key: "dtype"
    value {
      type: DT_FLOAT
    }
  }
}
node {
  name: "resnet_model/batch_normalization_2/AssignMovingAvg/Identity"
  op: "Identity"
  input: "resnet_model/batch_normalization_2/AssignMovingAvg/Read/ReadVariableOp"
  device: "/device:GPU:0"
  attr {
    key: "T"
    value {
      type: DT_FLOAT
    }
  }
  attr {
    key: "_output_shapes"
    value {
      list {
        shape {
          dim {
            size: 8
          }
        }
      }
    }
  }
}
node {
  name: "resnet_model/batch_normalization_2/AssignMovingAvg/sub/x"
  op: "Const"
  device: "/device:GPU:0"
  attr {
    key: "_class"
    value {
      list {
        s: "loc:@resnet_model/batch_normalization_2/AssignMovingAvg/Read/ReadVariableOp"
      }
    }
  }
  attr {
    key: "_output_shapes"
    value {
      list {
        shape {
        }
      }
    }
  }
  attr {
    key: "dtype"
    value {
      type: DT_FLOAT
    }
  }
  attr {
    key: "value"
    value {
      tensor {
        dtype: DT_FLOAT
        tensor_shape {
        }
        float_val: 1.0
      }
    }
  }
}
node {
  name: "resnet_model/batch_normalization_2/AssignMovingAvg/sub"
  op: "Sub"
  input: "resnet_model/batch_normalization_2/AssignMovingAvg/sub/x"
  input: "resnet_model/batch_normalization_2/Const_2"
  device: "/device:GPU:0"
  attr {
    key: "T"
    value {
      type: DT_FLOAT
    }
  }
  attr {
    key: "_class"
    value {
      list {
        s: "loc:@resnet_model/batch_normalization_2/AssignMovingAvg/Read/ReadVariableOp"
      }
    }
  }
  attr {
    key: "_output_shapes"
    value {
      list {
        shape {
        }
      }
    }
  }
}
node {
  name: "resnet_model/batch_normalization_2/AssignMovingAvg/ReadVariableOp"
  op: "ReadVariableOp"
  input: "resnet_model/batch_normalization_2/moving_mean"
  device: "/device:GPU:0"
  attr {
    key: "_output_shapes"
    value {
      list {
        shape {
          dim {
            size: 8
          }
        }
      }
    }
  }
  attr {
    key: "dtype"
    value {
      type: DT_FLOAT
    }
  }
}
node {
  name: "resnet_model/batch_normalization_2/AssignMovingAvg/sub_1"
  op: "Sub"
  input: "resnet_model/batch_normalization_2/AssignMovingAvg/ReadVariableOp"
  input: "resnet_model/batch_normalization_2/FusedBatchNorm:1"
  device: "/device:GPU:0"
  attr {
    key: "T"
    value {
      type: DT_FLOAT
    }
  }
  attr {
    key: "_class"
    value {
      list {
        s: "loc:@resnet_model/batch_normalization_2/AssignMovingAvg/Read/ReadVariableOp"
      }
    }
  }
  attr {
    key: "_output_shapes"
    value {
      list {
        shape {
          dim {
            size: 8
          }
        }
      }
    }
  }
}
node {
  name: "resnet_model/batch_normalization_2/AssignMovingAvg/mul"
  op: "Mul"
  input: "resnet_model/batch_normalization_2/AssignMovingAvg/sub_1"
  input: "resnet_model/batch_normalization_2/AssignMovingAvg/sub"
  device: "/device:GPU:0"
  attr {
    key: "T"
    value {
      type: DT_FLOAT
    }
  }
  attr {
    key: "_class"
    value {
      list {
        s: "loc:@resnet_model/batch_normalization_2/AssignMovingAvg/Read/ReadVariableOp"
      }
    }
  }
  attr {
    key: "_output_shapes"
    value {
      list {
        shape {
          dim {
            size: 8
          }
        }
      }
    }
  }
}
node {
  name: "resnet_model/batch_normalization_2/AssignMovingAvg/AssignSubVariableOp"
  op: "AssignSubVariableOp"
  input: "resnet_model/batch_normalization_2/moving_mean"
  input: "resnet_model/batch_normalization_2/AssignMovingAvg/mul"
  device: "/device:GPU:0"
  attr {
    key: "_class"
    value {
      list {
        s: "loc:@resnet_model/batch_normalization_2/AssignMovingAvg/Read/ReadVariableOp"
      }
    }
  }
  attr {
    key: "dtype"
    value {
      type: DT_FLOAT
    }
  }
}
node {
  name: "resnet_model/batch_normalization_2/AssignMovingAvg/ReadVariableOp_1"
  op: "ReadVariableOp"
  input: "resnet_model/batch_normalization_2/moving_mean"
  input: "^resnet_model/batch_normalization_2/AssignMovingAvg/AssignSubVariableOp"
  device: "/device:GPU:0"
  attr {
    key: "_class"
    value {
      list {
        s: "loc:@resnet_model/batch_normalization_2/AssignMovingAvg/Read/ReadVariableOp"
      }
    }
  }
  attr {
    key: "_output_shapes"
    value {
      list {
        shape {
          dim {
            size: 8
          }
        }
      }
    }
  }
  attr {
    key: "dtype"
    value {
      type: DT_FLOAT
    }
  }
}
node {
  name: "resnet_model/batch_normalization_2/AssignMovingAvg_1/Read/ReadVariableOp"
  op: "ReadVariableOp"
  input: "resnet_model/batch_normalization_2/moving_variance"
  device: "/device:GPU:0"
  attr {
    key: "_output_shapes"
    value {
      list {
        shape {
          dim {
            size: 8
          }
        }
      }
    }
  }
  attr {
    key: "dtype"
    value {
      type: DT_FLOAT
    }
  }
}
node {
  name: "resnet_model/batch_normalization_2/AssignMovingAvg_1/Identity"
  op: "Identity"
  input: "resnet_model/batch_normalization_2/AssignMovingAvg_1/Read/ReadVariableOp"
  device: "/device:GPU:0"
  attr {
    key: "T"
    value {
      type: DT_FLOAT
    }
  }
  attr {
    key: "_output_shapes"
    value {
      list {
        shape {
          dim {
            size: 8
          }
        }
      }
    }
  }
}
node {
  name: "resnet_model/batch_normalization_2/AssignMovingAvg_1/sub/x"
  op: "Const"
  device: "/device:GPU:0"
  attr {
    key: "_class"
    value {
      list {
        s: "loc:@resnet_model/batch_normalization_2/AssignMovingAvg_1/Read/ReadVariableOp"
      }
    }
  }
  attr {
    key: "_output_shapes"
    value {
      list {
        shape {
        }
      }
    }
  }
  attr {
    key: "dtype"
    value {
      type: DT_FLOAT
    }
  }
  attr {
    key: "value"
    value {
      tensor {
        dtype: DT_FLOAT
        tensor_shape {
        }
        float_val: 1.0
      }
    }
  }
}
node {
  name: "resnet_model/batch_normalization_2/AssignMovingAvg_1/sub"
  op: "Sub"
  input: "resnet_model/batch_normalization_2/AssignMovingAvg_1/sub/x"
  input: "resnet_model/batch_normalization_2/Const_2"
  device: "/device:GPU:0"
  attr {
    key: "T"
    value {
      type: DT_FLOAT
    }
  }
  attr {
    key: "_class"
    value {
      list {
        s: "loc:@resnet_model/batch_normalization_2/AssignMovingAvg_1/Read/ReadVariableOp"
      }
    }
  }
  attr {
    key: "_output_shapes"
    value {
      list {
        shape {
        }
      }
    }
  }
}
node {
  name: "resnet_model/batch_normalization_2/AssignMovingAvg_1/ReadVariableOp"
  op: "ReadVariableOp"
  input: "resnet_model/batch_normalization_2/moving_variance"
  device: "/device:GPU:0"
  attr {
    key: "_output_shapes"
    value {
      list {
        shape {
          dim {
            size: 8
          }
        }
      }
    }
  }
  attr {
    key: "dtype"
    value {
      type: DT_FLOAT
    }
  }
}
node {
  name: "resnet_model/batch_normalization_2/AssignMovingAvg_1/sub_1"
  op: "Sub"
  input: "resnet_model/batch_normalization_2/AssignMovingAvg_1/ReadVariableOp"
  input: "resnet_model/batch_normalization_2/FusedBatchNorm:2"
  device: "/device:GPU:0"
  attr {
    key: "T"
    value {
      type: DT_FLOAT
    }
  }
  attr {
    key: "_class"
    value {
      list {
        s: "loc:@resnet_model/batch_normalization_2/AssignMovingAvg_1/Read/ReadVariableOp"
      }
    }
  }
  attr {
    key: "_output_shapes"
    value {
      list {
        shape {
          dim {
            size: 8
          }
        }
      }
    }
  }
}
node {
  name: "resnet_model/batch_normalization_2/AssignMovingAvg_1/mul"
  op: "Mul"
  input: "resnet_model/batch_normalization_2/AssignMovingAvg_1/sub_1"
  input: "resnet_model/batch_normalization_2/AssignMovingAvg_1/sub"
  device: "/device:GPU:0"
  attr {
    key: "T"
    value {
      type: DT_FLOAT
    }
  }
  attr {
    key: "_class"
    value {
      list {
        s: "loc:@resnet_model/batch_normalization_2/AssignMovingAvg_1/Read/ReadVariableOp"
      }
    }
  }
  attr {
    key: "_output_shapes"
    value {
      list {
        shape {
          dim {
            size: 8
          }
        }
      }
    }
  }
}
node {
  name: "resnet_model/batch_normalization_2/AssignMovingAvg_1/AssignSubVariableOp"
  op: "AssignSubVariableOp"
  input: "resnet_model/batch_normalization_2/moving_variance"
  input: "resnet_model/batch_normalization_2/AssignMovingAvg_1/mul"
  device: "/device:GPU:0"
  attr {
    key: "_class"
    value {
      list {
        s: "loc:@resnet_model/batch_normalization_2/AssignMovingAvg_1/Read/ReadVariableOp"
      }
    }
  }
  attr {
    key: "dtype"
    value {
      type: DT_FLOAT
    }
  }
}
node {
  name: "resnet_model/batch_normalization_2/AssignMovingAvg_1/ReadVariableOp_1"
  op: "ReadVariableOp"
  input: "resnet_model/batch_normalization_2/moving_variance"
  input: "^resnet_model/batch_normalization_2/AssignMovingAvg_1/AssignSubVariableOp"
  device: "/device:GPU:0"
  attr {
    key: "_class"
    value {
      list {
        s: "loc:@resnet_model/batch_normalization_2/AssignMovingAvg_1/Read/ReadVariableOp"
      }
    }
  }
  attr {
    key: "_output_shapes"
    value {
      list {
        shape {
          dim {
            size: 8
          }
        }
      }
    }
  }
  attr {
    key: "dtype"
    value {
      type: DT_FLOAT
    }
  }
}
node {
  name: "resnet_model/Relu_2"
  op: "Relu"
  input: "resnet_model/batch_normalization_2/FusedBatchNorm"
  device: "/device:GPU:0"
  attr {
    key: "T"
    value {
      type: DT_FLOAT
    }
  }
  attr {
    key: "_output_shapes"
    value {
      list {
        shape {
          dim {
            size: -1
          }
          dim {
            size: 8
          }
          dim {
            size: 512
          }
          dim {
            size: 512
          }
        }
      }
    }
  }
}
node {
  name: "resnet_model/conv2d_4/kernel/Initializer/truncated_normal/shape"
  op: "Const"
  attr {
    key: "_class"
    value {
      list {
        s: "loc:@resnet_model/conv2d_4/kernel"
      }
    }
  }
  attr {
    key: "_output_shapes"
    value {
      list {
        shape {
          dim {
            size: 4
          }
        }
      }
    }
  }
  attr {
    key: "dtype"
    value {
      type: DT_INT32
    }
  }
  attr {
    key: "value"
    value {
      tensor {
        dtype: DT_INT32
        tensor_shape {
          dim {
            size: 4
          }
        }
        tensor_content: "\003\000\000\000\003\000\000\000\010\000\000\000\010\000\000\000"
      }
    }
  }
}
node {
  name: "resnet_model/conv2d_4/kernel/Initializer/truncated_normal/mean"
  op: "Const"
  attr {
    key: "_class"
    value {
      list {
        s: "loc:@resnet_model/conv2d_4/kernel"
      }
    }
  }
  attr {
    key: "_output_shapes"
    value {
      list {
        shape {
        }
      }
    }
  }
  attr {
    key: "dtype"
    value {
      type: DT_FLOAT
    }
  }
  attr {
    key: "value"
    value {
      tensor {
        dtype: DT_FLOAT
        tensor_shape {
        }
        float_val: 0.0
      }
    }
  }
}
node {
  name: "resnet_model/conv2d_4/kernel/Initializer/truncated_normal/stddev"
  op: "Const"
  attr {
    key: "_class"
    value {
      list {
        s: "loc:@resnet_model/conv2d_4/kernel"
      }
    }
  }
  attr {
    key: "_output_shapes"
    value {
      list {
        shape {
        }
      }
    }
  }
  attr {
    key: "dtype"
    value {
      type: DT_FLOAT
    }
  }
  attr {
    key: "value"
    value {
      tensor {
        dtype: DT_FLOAT
        tensor_shape {
        }
        float_val: 0.1339787244796753
      }
    }
  }
}
node {
  name: "resnet_model/conv2d_4/kernel/Initializer/truncated_normal/TruncatedNormal"
  op: "TruncatedNormal"
  input: "resnet_model/conv2d_4/kernel/Initializer/truncated_normal/shape"
  attr {
    key: "T"
    value {
      type: DT_INT32
    }
  }
  attr {
    key: "_class"
    value {
      list {
        s: "loc:@resnet_model/conv2d_4/kernel"
      }
    }
  }
  attr {
    key: "_output_shapes"
    value {
      list {
        shape {
          dim {
            size: 3
          }
          dim {
            size: 3
          }
          dim {
            size: 8
          }
          dim {
            size: 8
          }
        }
      }
    }
  }
  attr {
    key: "dtype"
    value {
      type: DT_FLOAT
    }
  }
  attr {
    key: "seed"
    value {
      i: 0
    }
  }
  attr {
    key: "seed2"
    value {
      i: 0
    }
  }
}
node {
  name: "resnet_model/conv2d_4/kernel/Initializer/truncated_normal/mul"
  op: "Mul"
  input: "resnet_model/conv2d_4/kernel/Initializer/truncated_normal/TruncatedNormal"
  input: "resnet_model/conv2d_4/kernel/Initializer/truncated_normal/stddev"
  attr {
    key: "T"
    value {
      type: DT_FLOAT
    }
  }
  attr {
    key: "_class"
    value {
      list {
        s: "loc:@resnet_model/conv2d_4/kernel"
      }
    }
  }
  attr {
    key: "_output_shapes"
    value {
      list {
        shape {
          dim {
            size: 3
          }
          dim {
            size: 3
          }
          dim {
            size: 8
          }
          dim {
            size: 8
          }
        }
      }
    }
  }
}
node {
  name: "resnet_model/conv2d_4/kernel/Initializer/truncated_normal"
  op: "Add"
  input: "resnet_model/conv2d_4/kernel/Initializer/truncated_normal/mul"
  input: "resnet_model/conv2d_4/kernel/Initializer/truncated_normal/mean"
  attr {
    key: "T"
    value {
      type: DT_FLOAT
    }
  }
  attr {
    key: "_class"
    value {
      list {
        s: "loc:@resnet_model/conv2d_4/kernel"
      }
    }
  }
  attr {
    key: "_output_shapes"
    value {
      list {
        shape {
          dim {
            size: 3
          }
          dim {
            size: 3
          }
          dim {
            size: 8
          }
          dim {
            size: 8
          }
        }
      }
    }
  }
}
node {
  name: "resnet_model/conv2d_4/kernel"
  op: "VarHandleOp"
  device: "/device:GPU:0"
  attr {
    key: "_class"
    value {
      list {
        s: "loc:@resnet_model/conv2d_4/kernel"
      }
    }
  }
  attr {
    key: "_output_shapes"
    value {
      list {
        shape {
        }
      }
    }
  }
  attr {
    key: "container"
    value {
      s: ""
    }
  }
  attr {
    key: "dtype"
    value {
      type: DT_FLOAT
    }
  }
  attr {
    key: "shape"
    value {
      shape {
        dim {
          size: 3
        }
        dim {
          size: 3
        }
        dim {
          size: 8
        }
        dim {
          size: 8
        }
      }
    }
  }
  attr {
    key: "shared_name"
    value {
      s: "resnet_model/conv2d_4/kernel"
    }
  }
}
node {
  name: "resnet_model/conv2d_4/kernel/IsInitialized/VarIsInitializedOp"
  op: "VarIsInitializedOp"
  input: "resnet_model/conv2d_4/kernel"
  device: "/device:GPU:0"
  attr {
    key: "_output_shapes"
    value {
      list {
        shape {
        }
      }
    }
  }
}
node {
  name: "resnet_model/conv2d_4/kernel/Assign"
  op: "AssignVariableOp"
  input: "resnet_model/conv2d_4/kernel"
  input: "resnet_model/conv2d_4/kernel/Initializer/truncated_normal"
  device: "/device:GPU:0"
  attr {
    key: "_class"
    value {
      list {
        s: "loc:@resnet_model/conv2d_4/kernel"
      }
    }
  }
  attr {
    key: "dtype"
    value {
      type: DT_FLOAT
    }
  }
}
node {
  name: "resnet_model/conv2d_4/kernel/Read/ReadVariableOp"
  op: "ReadVariableOp"
  input: "resnet_model/conv2d_4/kernel"
  device: "/device:GPU:0"
  attr {
    key: "_class"
    value {
      list {
        s: "loc:@resnet_model/conv2d_4/kernel"
      }
    }
  }
  attr {
    key: "_output_shapes"
    value {
      list {
        shape {
          dim {
            size: 3
          }
          dim {
            size: 3
          }
          dim {
            size: 8
          }
          dim {
            size: 8
          }
        }
      }
    }
  }
  attr {
    key: "dtype"
    value {
      type: DT_FLOAT
    }
  }
}
node {
  name: "resnet_model/conv2d_4/dilation_rate"
  op: "Const"
  device: "/device:GPU:0"
  attr {
    key: "_output_shapes"
    value {
      list {
        shape {
          dim {
            size: 2
          }
        }
      }
    }
  }
  attr {
    key: "dtype"
    value {
      type: DT_INT32
    }
  }
  attr {
    key: "value"
    value {
      tensor {
        dtype: DT_INT32
        tensor_shape {
          dim {
            size: 2
          }
        }
        tensor_content: "\001\000\000\000\001\000\000\000"
      }
    }
  }
}
node {
  name: "resnet_model/conv2d_4/Conv2D/ReadVariableOp"
  op: "ReadVariableOp"
  input: "resnet_model/conv2d_4/kernel"
  device: "/device:GPU:0"
  attr {
    key: "_output_shapes"
    value {
      list {
        shape {
          dim {
            size: 3
          }
          dim {
            size: 3
          }
          dim {
            size: 8
          }
          dim {
            size: 8
          }
        }
      }
    }
  }
  attr {
    key: "dtype"
    value {
      type: DT_FLOAT
    }
  }
}
node {
  name: "resnet_model/conv2d_4/Conv2D"
  op: "Conv2D"
  input: "resnet_model/Relu_2"
  input: "resnet_model/conv2d_4/Conv2D/ReadVariableOp"
  device: "/device:GPU:0"
  attr {
    key: "T"
    value {
      type: DT_FLOAT
    }
  }
  attr {
    key: "_output_shapes"
    value {
      list {
        shape {
          dim {
            size: -1
          }
          dim {
            size: 8
          }
          dim {
            size: 512
          }
          dim {
            size: 512
          }
        }
      }
    }
  }
  attr {
    key: "data_format"
    value {
      s: "NCHW"
    }
  }
  attr {
    key: "dilations"
    value {
      list {
        i: 1
        i: 1
        i: 1
        i: 1
      }
    }
  }
  attr {
    key: "padding"
    value {
      s: "SAME"
    }
  }
  attr {
    key: "strides"
    value {
      list {
        i: 1
        i: 1
        i: 1
        i: 1
      }
    }
  }
  attr {
    key: "use_cudnn_on_gpu"
    value {
      b: true
    }
  }
}
node {
  name: "resnet_model/batch_normalization_3/gamma/Initializer/ones"
  op: "Const"
  attr {
    key: "_class"
    value {
      list {
        s: "loc:@resnet_model/batch_normalization_3/gamma"
      }
    }
  }
  attr {
    key: "_output_shapes"
    value {
      list {
        shape {
          dim {
            size: 8
          }
        }
      }
    }
  }
  attr {
    key: "dtype"
    value {
      type: DT_FLOAT
    }
  }
  attr {
    key: "value"
    value {
      tensor {
        dtype: DT_FLOAT
        tensor_shape {
          dim {
            size: 8
          }
        }
        float_val: 1.0
      }
    }
  }
}
node {
  name: "resnet_model/batch_normalization_3/gamma"
  op: "VarHandleOp"
  device: "/device:GPU:0"
  attr {
    key: "_class"
    value {
      list {
        s: "loc:@resnet_model/batch_normalization_3/gamma"
      }
    }
  }
  attr {
    key: "_output_shapes"
    value {
      list {
        shape {
        }
      }
    }
  }
  attr {
    key: "container"
    value {
      s: ""
    }
  }
  attr {
    key: "dtype"
    value {
      type: DT_FLOAT
    }
  }
  attr {
    key: "shape"
    value {
      shape {
        dim {
          size: 8
        }
      }
    }
  }
  attr {
    key: "shared_name"
    value {
      s: "resnet_model/batch_normalization_3/gamma"
    }
  }
}
node {
  name: "resnet_model/batch_normalization_3/gamma/IsInitialized/VarIsInitializedOp"
  op: "VarIsInitializedOp"
  input: "resnet_model/batch_normalization_3/gamma"
  device: "/device:GPU:0"
  attr {
    key: "_output_shapes"
    value {
      list {
        shape {
        }
      }
    }
  }
}
node {
  name: "resnet_model/batch_normalization_3/gamma/Assign"
  op: "AssignVariableOp"
  input: "resnet_model/batch_normalization_3/gamma"
  input: "resnet_model/batch_normalization_3/gamma/Initializer/ones"
  device: "/device:GPU:0"
  attr {
    key: "_class"
    value {
      list {
        s: "loc:@resnet_model/batch_normalization_3/gamma"
      }
    }
  }
  attr {
    key: "dtype"
    value {
      type: DT_FLOAT
    }
  }
}
node {
  name: "resnet_model/batch_normalization_3/gamma/Read/ReadVariableOp"
  op: "ReadVariableOp"
  input: "resnet_model/batch_normalization_3/gamma"
  device: "/device:GPU:0"
  attr {
    key: "_class"
    value {
      list {
        s: "loc:@resnet_model/batch_normalization_3/gamma"
      }
    }
  }
  attr {
    key: "_output_shapes"
    value {
      list {
        shape {
          dim {
            size: 8
          }
        }
      }
    }
  }
  attr {
    key: "dtype"
    value {
      type: DT_FLOAT
    }
  }
}
node {
  name: "resnet_model/batch_normalization_3/beta/Initializer/zeros"
  op: "Const"
  attr {
    key: "_class"
    value {
      list {
        s: "loc:@resnet_model/batch_normalization_3/beta"
      }
    }
  }
  attr {
    key: "_output_shapes"
    value {
      list {
        shape {
          dim {
            size: 8
          }
        }
      }
    }
  }
  attr {
    key: "dtype"
    value {
      type: DT_FLOAT
    }
  }
  attr {
    key: "value"
    value {
      tensor {
        dtype: DT_FLOAT
        tensor_shape {
          dim {
            size: 8
          }
        }
        float_val: 0.0
      }
    }
  }
}
node {
  name: "resnet_model/batch_normalization_3/beta"
  op: "VarHandleOp"
  device: "/device:GPU:0"
  attr {
    key: "_class"
    value {
      list {
        s: "loc:@resnet_model/batch_normalization_3/beta"
      }
    }
  }
  attr {
    key: "_output_shapes"
    value {
      list {
        shape {
        }
      }
    }
  }
  attr {
    key: "container"
    value {
      s: ""
    }
  }
  attr {
    key: "dtype"
    value {
      type: DT_FLOAT
    }
  }
  attr {
    key: "shape"
    value {
      shape {
        dim {
          size: 8
        }
      }
    }
  }
  attr {
    key: "shared_name"
    value {
      s: "resnet_model/batch_normalization_3/beta"
    }
  }
}
node {
  name: "resnet_model/batch_normalization_3/beta/IsInitialized/VarIsInitializedOp"
  op: "VarIsInitializedOp"
  input: "resnet_model/batch_normalization_3/beta"
  device: "/device:GPU:0"
  attr {
    key: "_output_shapes"
    value {
      list {
        shape {
        }
      }
    }
  }
}
node {
  name: "resnet_model/batch_normalization_3/beta/Assign"
  op: "AssignVariableOp"
  input: "resnet_model/batch_normalization_3/beta"
  input: "resnet_model/batch_normalization_3/beta/Initializer/zeros"
  device: "/device:GPU:0"
  attr {
    key: "_class"
    value {
      list {
        s: "loc:@resnet_model/batch_normalization_3/beta"
      }
    }
  }
  attr {
    key: "dtype"
    value {
      type: DT_FLOAT
    }
  }
}
node {
  name: "resnet_model/batch_normalization_3/beta/Read/ReadVariableOp"
  op: "ReadVariableOp"
  input: "resnet_model/batch_normalization_3/beta"
  device: "/device:GPU:0"
  attr {
    key: "_class"
    value {
      list {
        s: "loc:@resnet_model/batch_normalization_3/beta"
      }
    }
  }
  attr {
    key: "_output_shapes"
    value {
      list {
        shape {
          dim {
            size: 8
          }
        }
      }
    }
  }
  attr {
    key: "dtype"
    value {
      type: DT_FLOAT
    }
  }
}
node {
  name: "resnet_model/batch_normalization_3/moving_mean/Initializer/zeros"
  op: "Const"
  attr {
    key: "_class"
    value {
      list {
        s: "loc:@resnet_model/batch_normalization_3/moving_mean"
      }
    }
  }
  attr {
    key: "_output_shapes"
    value {
      list {
        shape {
          dim {
            size: 8
          }
        }
      }
    }
  }
  attr {
    key: "dtype"
    value {
      type: DT_FLOAT
    }
  }
  attr {
    key: "value"
    value {
      tensor {
        dtype: DT_FLOAT
        tensor_shape {
          dim {
            size: 8
          }
        }
        float_val: 0.0
      }
    }
  }
}
node {
  name: "resnet_model/batch_normalization_3/moving_mean"
  op: "VarHandleOp"
  device: "/device:GPU:0"
  attr {
    key: "_class"
    value {
      list {
        s: "loc:@resnet_model/batch_normalization_3/moving_mean"
      }
    }
  }
  attr {
    key: "_output_shapes"
    value {
      list {
        shape {
        }
      }
    }
  }
  attr {
    key: "container"
    value {
      s: ""
    }
  }
  attr {
    key: "dtype"
    value {
      type: DT_FLOAT
    }
  }
  attr {
    key: "shape"
    value {
      shape {
        dim {
          size: 8
        }
      }
    }
  }
  attr {
    key: "shared_name"
    value {
      s: "resnet_model/batch_normalization_3/moving_mean"
    }
  }
}
node {
  name: "resnet_model/batch_normalization_3/moving_mean/IsInitialized/VarIsInitializedOp"
  op: "VarIsInitializedOp"
  input: "resnet_model/batch_normalization_3/moving_mean"
  device: "/device:GPU:0"
  attr {
    key: "_output_shapes"
    value {
      list {
        shape {
        }
      }
    }
  }
}
node {
  name: "resnet_model/batch_normalization_3/moving_mean/Assign"
  op: "AssignVariableOp"
  input: "resnet_model/batch_normalization_3/moving_mean"
  input: "resnet_model/batch_normalization_3/moving_mean/Initializer/zeros"
  device: "/device:GPU:0"
  attr {
    key: "_class"
    value {
      list {
        s: "loc:@resnet_model/batch_normalization_3/moving_mean"
      }
    }
  }
  attr {
    key: "dtype"
    value {
      type: DT_FLOAT
    }
  }
}
node {
  name: "resnet_model/batch_normalization_3/moving_mean/Read/ReadVariableOp"
  op: "ReadVariableOp"
  input: "resnet_model/batch_normalization_3/moving_mean"
  device: "/device:GPU:0"
  attr {
    key: "_class"
    value {
      list {
        s: "loc:@resnet_model/batch_normalization_3/moving_mean"
      }
    }
  }
  attr {
    key: "_output_shapes"
    value {
      list {
        shape {
          dim {
            size: 8
          }
        }
      }
    }
  }
  attr {
    key: "dtype"
    value {
      type: DT_FLOAT
    }
  }
}
node {
  name: "resnet_model/batch_normalization_3/moving_variance/Initializer/ones"
  op: "Const"
  attr {
    key: "_class"
    value {
      list {
        s: "loc:@resnet_model/batch_normalization_3/moving_variance"
      }
    }
  }
  attr {
    key: "_output_shapes"
    value {
      list {
        shape {
          dim {
            size: 8
          }
        }
      }
    }
  }
  attr {
    key: "dtype"
    value {
      type: DT_FLOAT
    }
  }
  attr {
    key: "value"
    value {
      tensor {
        dtype: DT_FLOAT
        tensor_shape {
          dim {
            size: 8
          }
        }
        float_val: 1.0
      }
    }
  }
}
node {
  name: "resnet_model/batch_normalization_3/moving_variance"
  op: "VarHandleOp"
  device: "/device:GPU:0"
  attr {
    key: "_class"
    value {
      list {
        s: "loc:@resnet_model/batch_normalization_3/moving_variance"
      }
    }
  }
  attr {
    key: "_output_shapes"
    value {
      list {
        shape {
        }
      }
    }
  }
  attr {
    key: "container"
    value {
      s: ""
    }
  }
  attr {
    key: "dtype"
    value {
      type: DT_FLOAT
    }
  }
  attr {
    key: "shape"
    value {
      shape {
        dim {
          size: 8
        }
      }
    }
  }
  attr {
    key: "shared_name"
    value {
      s: "resnet_model/batch_normalization_3/moving_variance"
    }
  }
}
node {
  name: "resnet_model/batch_normalization_3/moving_variance/IsInitialized/VarIsInitializedOp"
  op: "VarIsInitializedOp"
  input: "resnet_model/batch_normalization_3/moving_variance"
  device: "/device:GPU:0"
  attr {
    key: "_output_shapes"
    value {
      list {
        shape {
        }
      }
    }
  }
}
node {
  name: "resnet_model/batch_normalization_3/moving_variance/Assign"
  op: "AssignVariableOp"
  input: "resnet_model/batch_normalization_3/moving_variance"
  input: "resnet_model/batch_normalization_3/moving_variance/Initializer/ones"
  device: "/device:GPU:0"
  attr {
    key: "_class"
    value {
      list {
        s: "loc:@resnet_model/batch_normalization_3/moving_variance"
      }
    }
  }
  attr {
    key: "dtype"
    value {
      type: DT_FLOAT
    }
  }
}
node {
  name: "resnet_model/batch_normalization_3/moving_variance/Read/ReadVariableOp"
  op: "ReadVariableOp"
  input: "resnet_model/batch_normalization_3/moving_variance"
  device: "/device:GPU:0"
  attr {
    key: "_class"
    value {
      list {
        s: "loc:@resnet_model/batch_normalization_3/moving_variance"
      }
    }
  }
  attr {
    key: "_output_shapes"
    value {
      list {
        shape {
          dim {
            size: 8
          }
        }
      }
    }
  }
  attr {
    key: "dtype"
    value {
      type: DT_FLOAT
    }
  }
}
node {
  name: "resnet_model/batch_normalization_3/ReadVariableOp"
  op: "ReadVariableOp"
  input: "resnet_model/batch_normalization_3/gamma"
  device: "/device:GPU:0"
  attr {
    key: "_output_shapes"
    value {
      list {
        shape {
          dim {
            size: 8
          }
        }
      }
    }
  }
  attr {
    key: "dtype"
    value {
      type: DT_FLOAT
    }
  }
}
node {
  name: "resnet_model/batch_normalization_3/ReadVariableOp_1"
  op: "ReadVariableOp"
  input: "resnet_model/batch_normalization_3/beta"
  device: "/device:GPU:0"
  attr {
    key: "_output_shapes"
    value {
      list {
        shape {
          dim {
            size: 8
          }
        }
      }
    }
  }
  attr {
    key: "dtype"
    value {
      type: DT_FLOAT
    }
  }
}
node {
  name: "resnet_model/batch_normalization_3/Const"
  op: "Const"
  device: "/device:GPU:0"
  attr {
    key: "_output_shapes"
    value {
      list {
        shape {
          dim {
          }
        }
      }
    }
  }
  attr {
    key: "dtype"
    value {
      type: DT_FLOAT
    }
  }
  attr {
    key: "value"
    value {
      tensor {
        dtype: DT_FLOAT
        tensor_shape {
          dim {
          }
        }
      }
    }
  }
}
node {
  name: "resnet_model/batch_normalization_3/Const_1"
  op: "Const"
  device: "/device:GPU:0"
  attr {
    key: "_output_shapes"
    value {
      list {
        shape {
          dim {
          }
        }
      }
    }
  }
  attr {
    key: "dtype"
    value {
      type: DT_FLOAT
    }
  }
  attr {
    key: "value"
    value {
      tensor {
        dtype: DT_FLOAT
        tensor_shape {
          dim {
          }
        }
      }
    }
  }
}
node {
  name: "resnet_model/batch_normalization_3/FusedBatchNorm"
  op: "FusedBatchNorm"
  input: "resnet_model/conv2d_4/Conv2D"
  input: "resnet_model/batch_normalization_3/ReadVariableOp"
  input: "resnet_model/batch_normalization_3/ReadVariableOp_1"
  input: "resnet_model/batch_normalization_3/Const"
  input: "resnet_model/batch_normalization_3/Const_1"
  device: "/device:GPU:0"
  attr {
    key: "T"
    value {
      type: DT_FLOAT
    }
  }
  attr {
    key: "_output_shapes"
    value {
      list {
        shape {
          dim {
            size: -1
          }
          dim {
            size: 8
          }
          dim {
            size: 512
          }
          dim {
            size: 512
          }
        }
        shape {
          dim {
            size: 8
          }
        }
        shape {
          dim {
            size: 8
          }
        }
        shape {
          dim {
            size: 8
          }
        }
        shape {
          dim {
            size: 8
          }
        }
      }
    }
  }
  attr {
    key: "data_format"
    value {
      s: "NCHW"
    }
  }
  attr {
    key: "epsilon"
    value {
      f: 1.0009999641624745e-05
    }
  }
  attr {
    key: "is_training"
    value {
      b: true
    }
  }
}
node {
  name: "resnet_model/batch_normalization_3/Const_2"
  op: "Const"
  device: "/device:GPU:0"
  attr {
    key: "_output_shapes"
    value {
      list {
        shape {
        }
      }
    }
  }
  attr {
    key: "dtype"
    value {
      type: DT_FLOAT
    }
  }
  attr {
    key: "value"
    value {
      tensor {
        dtype: DT_FLOAT
        tensor_shape {
        }
        float_val: 0.996999979019165
      }
    }
  }
}
node {
  name: "resnet_model/batch_normalization_3/AssignMovingAvg/Read/ReadVariableOp"
  op: "ReadVariableOp"
  input: "resnet_model/batch_normalization_3/moving_mean"
  device: "/device:GPU:0"
  attr {
    key: "_output_shapes"
    value {
      list {
        shape {
          dim {
            size: 8
          }
        }
      }
    }
  }
  attr {
    key: "dtype"
    value {
      type: DT_FLOAT
    }
  }
}
node {
  name: "resnet_model/batch_normalization_3/AssignMovingAvg/Identity"
  op: "Identity"
  input: "resnet_model/batch_normalization_3/AssignMovingAvg/Read/ReadVariableOp"
  device: "/device:GPU:0"
  attr {
    key: "T"
    value {
      type: DT_FLOAT
    }
  }
  attr {
    key: "_output_shapes"
    value {
      list {
        shape {
          dim {
            size: 8
          }
        }
      }
    }
  }
}
node {
  name: "resnet_model/batch_normalization_3/AssignMovingAvg/sub/x"
  op: "Const"
  device: "/device:GPU:0"
  attr {
    key: "_class"
    value {
      list {
        s: "loc:@resnet_model/batch_normalization_3/AssignMovingAvg/Read/ReadVariableOp"
      }
    }
  }
  attr {
    key: "_output_shapes"
    value {
      list {
        shape {
        }
      }
    }
  }
  attr {
    key: "dtype"
    value {
      type: DT_FLOAT
    }
  }
  attr {
    key: "value"
    value {
      tensor {
        dtype: DT_FLOAT
        tensor_shape {
        }
        float_val: 1.0
      }
    }
  }
}
node {
  name: "resnet_model/batch_normalization_3/AssignMovingAvg/sub"
  op: "Sub"
  input: "resnet_model/batch_normalization_3/AssignMovingAvg/sub/x"
  input: "resnet_model/batch_normalization_3/Const_2"
  device: "/device:GPU:0"
  attr {
    key: "T"
    value {
      type: DT_FLOAT
    }
  }
  attr {
    key: "_class"
    value {
      list {
        s: "loc:@resnet_model/batch_normalization_3/AssignMovingAvg/Read/ReadVariableOp"
      }
    }
  }
  attr {
    key: "_output_shapes"
    value {
      list {
        shape {
        }
      }
    }
  }
}
node {
  name: "resnet_model/batch_normalization_3/AssignMovingAvg/ReadVariableOp"
  op: "ReadVariableOp"
  input: "resnet_model/batch_normalization_3/moving_mean"
  device: "/device:GPU:0"
  attr {
    key: "_output_shapes"
    value {
      list {
…
  input: "save/Identity_53"
  device: "/device:GPU:0"
  attr {
    key: "dtype"
    value {
      type: DT_FLOAT
    }
  }
}
node {
  name: "save/Identity_54"
  op: "Identity"
  input: "save/RestoreV2:53"
  device: "/device:GPU:0"
  attr {
    key: "T"
    value {
      type: DT_FLOAT
    }
  }
  attr {
    key: "_output_shapes"
    value {
      list {
        shape {
          unknown_rank: true
        }
      }
    }
  }
}
node {
  name: "save/AssignVariableOp_53"
  op: "AssignVariableOp"
  input: "resnet_model/batch_normalization_5/moving_mean"
  input: "save/Identity_54"
  device: "/device:GPU:0"
  attr {
    key: "dtype"
    value {
      type: DT_FLOAT
    }
  }
}
node {
  name: "save/Identity_55"
  op: "Identity"
  input: "save/RestoreV2:54"
  device: "/device:GPU:0"
  attr {
    key: "T"
    value {
      type: DT_FLOAT
    }
  }
  attr {
    key: "_output_shapes"
    value {
      list {
        shape {
          unknown_rank: true
        }
      }
    }
  }
}
node {
  name: "save/AssignVariableOp_54"
  op: "AssignVariableOp"
  input: "resnet_model/batch_normalization_5/moving_variance"
  input: "save/Identity_55"
  device: "/device:GPU:0"
  attr {
    key: "dtype"
    value {
      type: DT_FLOAT
    }
  }
}
node {
  name: "save/Identity_56"
  op: "Identity"
  input: "save/RestoreV2:55"
  device: "/device:GPU:0"
  attr {
    key: "T"
    value {
      type: DT_FLOAT
    }
  }
  attr {
    key: "_output_shapes"
    value {
      list {
        shape {
          unknown_rank: true
        }
      }
    }
  }
}
node {
  name: "save/AssignVariableOp_55"
  op: "AssignVariableOp"
  input: "resnet_model/batch_normalization_6/beta"
  input: "save/Identity_56"
  device: "/device:GPU:0"
  attr {
    key: "dtype"
    value {
      type: DT_FLOAT
    }
  }
}
node {
  name: "save/Identity_57"
  op: "Identity"
  input: "save/RestoreV2:56"
  device: "/device:GPU:0"
  attr {
    key: "T"
    value {
      type: DT_FLOAT
    }
  }
  attr {
    key: "_output_shapes"
    value {
      list {
        shape {
          unknown_rank: true
        }
      }
    }
  }
}
node {
  name: "save/AssignVariableOp_56"
  op: "AssignVariableOp"
  input: "resnet_model/batch_normalization_6/beta/Momentum"
  input: "save/Identity_57"
  device: "/device:GPU:0"
  attr {
    key: "dtype"
    value {
      type: DT_FLOAT
    }
  }
}
node {
  name: "save/Identity_58"
  op: "Identity"
  input: "save/RestoreV2:57"
  device: "/device:GPU:0"
  attr {
    key: "T"
    value {
      type: DT_FLOAT
    }
  }
  attr {
    key: "_output_shapes"
    value {
      list {
        shape {
          unknown_rank: true
        }
      }
    }
  }
}
node {
  name: "save/AssignVariableOp_57"
  op: "AssignVariableOp"
  input: "resnet_model/batch_normalization_6/gamma"
  input: "save/Identity_58"
  device: "/device:GPU:0"
  attr {
    key: "dtype"
    value {
      type: DT_FLOAT
    }
  }
}
node {
  name: "save/Identity_59"
  op: "Identity"
  input: "save/RestoreV2:58"
  device: "/device:GPU:0"
  attr {
    key: "T"
    value {
      type: DT_FLOAT
    }
  }
  attr {
    key: "_output_shapes"
    value {
      list {
        shape {
          unknown_rank: true
        }
      }
    }
  }
}
node {
  name: "save/AssignVariableOp_58"
  op: "AssignVariableOp"
  input: "resnet_model/batch_normalization_6/gamma/Momentum"
  input: "save/Identity_59"
  device: "/device:GPU:0"
  attr {
    key: "dtype"
    value {
      type: DT_FLOAT
    }
  }
}
node {
  name: "save/Identity_60"
  op: "Identity"
  input: "save/RestoreV2:59"
  device: "/device:GPU:0"
  attr {
    key: "T"
    value {
      type: DT_FLOAT
    }
  }
  attr {
    key: "_output_shapes"
    value {
      list {
        shape {
          unknown_rank: true
        }
      }
    }
  }
}
node {
  name: "save/AssignVariableOp_59"
  op: "AssignVariableOp"
  input: "resnet_model/batch_normalization_6/moving_mean"
  input: "save/Identity_60"
  device: "/device:GPU:0"
  attr {
    key: "dtype"
    value {
      type: DT_FLOAT
    }
  }
}
node {
  name: "save/Identity_61"
  op: "Identity"
  input: "save/RestoreV2:60"
  device: "/device:GPU:0"
  attr {
    key: "T"
    value {
      type: DT_FLOAT
    }
  }
  attr {
    key: "_output_shapes"
    value {
      list {
        shape {
          unknown_rank: true
        }
      }
    }
  }
}
node {
  name: "save/AssignVariableOp_60"
  op: "AssignVariableOp"
  input: "resnet_model/batch_normalization_6/moving_variance"
  input: "save/Identity_61"
  device: "/device:GPU:0"
  attr {
    key: "dtype"
    value {
      type: DT_FLOAT
    }
  }
}
node {
  name: "save/Identity_62"
  op: "Identity"
  input: "save/RestoreV2:61"
  device: "/device:GPU:0"
  attr {
    key: "T"
    value {
      type: DT_FLOAT
    }
  }
  attr {
    key: "_output_shapes"
    value {
      list {
        shape {
          unknown_rank: true
        }
      }
    }
  }
}
node {
  name: "save/AssignVariableOp_61"
  op: "AssignVariableOp"
  input: "resnet_model/batch_normalization_7/beta"
  input: "save/Identity_62"
  device: "/device:GPU:0"
  attr {
    key: "dtype"
    value {
      type: DT_FLOAT
    }
  }
}
node {
  name: "save/Identity_63"
  op: "Identity"
  input: "save/RestoreV2:62"
  device: "/device:GPU:0"
  attr {
    key: "T"
    value {
      type: DT_FLOAT
    }
  }
  attr {
    key: "_output_shapes"
    value {
      list {
        shape {
          unknown_rank: true
        }
      }
    }
  }
}
node {
  name: "save/AssignVariableOp_62"
  op: "AssignVariableOp"
  input: "resnet_model/batch_normalization_7/beta/Momentum"
  input: "save/Identity_63"
  device: "/device:GPU:0"
  attr {
    key: "dtype"
    value {
      type: DT_FLOAT
    }
  }
}
node {
  name: "save/Identity_64"
  op: "Identity"
  input: "save/RestoreV2:63"
  device: "/device:GPU:0"
  attr {
    key: "T"
    value {
      type: DT_FLOAT
    }
  }
  attr {
    key: "_output_shapes"
    value {
      list {
        shape {
          unknown_rank: true
        }
      }
    }
  }
}
node {
  name: "save/AssignVariableOp_63"
  op: "AssignVariableOp"
  input: "resnet_model/batch_normalization_7/gamma"
  input: "save/Identity_64"
  device: "/device:GPU:0"
  attr {
    key: "dtype"
    value {
      type: DT_FLOAT
    }
  }
}
node {
  name: "save/Identity_65"
  op: "Identity"
  input: "save/RestoreV2:64"
  device: "/device:GPU:0"
  attr {
    key: "T"
    value {
      type: DT_FLOAT
    }
  }
  attr {
    key: "_output_shapes"
    value {
      list {
        shape {
          unknown_rank: true
        }
      }
    }
  }
}
node {
  name: "save/AssignVariableOp_64"
  op: "AssignVariableOp"
  input: "resnet_model/batch_normalization_7/gamma/Momentum"
  input: "save/Identity_65"
  device: "/device:GPU:0"
  attr {
    key: "dtype"
    value {
      type: DT_FLOAT
    }
  }
}
node {
  name: "save/Identity_66"
  op: "Identity"
  input: "save/RestoreV2:65"
  device: "/device:GPU:0"
  attr {
    key: "T"
    value {
      type: DT_FLOAT
    }
  }
  attr {
    key: "_output_shapes"
    value {
      list {
        shape {
          unknown_rank: true
        }
      }
    }
  }
}
node {
  name: "save/AssignVariableOp_65"
  op: "AssignVariableOp"
  input: "resnet_model/batch_normalization_7/moving_mean"
  input: "save/Identity_66"
  device: "/device:GPU:0"
  attr {
    key: "dtype"
    value {
      type: DT_FLOAT
    }
  }
}
node {
  name: "save/Identity_67"
  op: "Identity"
  input: "save/RestoreV2:66"
  device: "/device:GPU:0"
  attr {
    key: "T"
    value {
      type: DT_FLOAT
    }
  }
  attr {
    key: "_output_shapes"
    value {
      list {
        shape {
          unknown_rank: true
        }
      }
    }
  }
}
node {
  name: "save/AssignVariableOp_66"
  op: "AssignVariableOp"
  input: "resnet_model/batch_normalization_7/moving_variance"
  input: "save/Identity_67"
  device: "/device:GPU:0"
  attr {
    key: "dtype"
    value {
      type: DT_FLOAT
    }
  }
}
node {
  name: "save/Identity_68"
  op: "Identity"
  input: "save/RestoreV2:67"
  device: "/device:GPU:0"
  attr {
    key: "T"
    value {
      type: DT_FLOAT
    }
  }
  attr {
    key: "_output_shapes"
    value {
      list {
        shape {
          unknown_rank: true
        }
      }
    }
  }
}
node {
  name: "save/AssignVariableOp_67"
  op: "AssignVariableOp"
  input: "resnet_model/batch_normalization_8/beta"
  input: "save/Identity_68"
  device: "/device:GPU:0"
  attr {
    key: "dtype"
    value {
      type: DT_FLOAT
    }
  }
}
node {
  name: "save/Identity_69"
  op: "Identity"
  input: "save/RestoreV2:68"
  device: "/device:GPU:0"
  attr {
    key: "T"
    value {
      type: DT_FLOAT
    }
  }
  attr {
    key: "_output_shapes"
    value {
      list {
        shape {
          unknown_rank: true
        }
      }
    }
  }
}
node {
  name: "save/AssignVariableOp_68"
  op: "AssignVariableOp"
  input: "resnet_model/batch_normalization_8/beta/Momentum"
  input: "save/Identity_69"
  device: "/device:GPU:0"
  attr {
    key: "dtype"
    value {
      type: DT_FLOAT
    }
  }
}
node {
  name: "save/Identity_70"
  op: "Identity"
  input: "save/RestoreV2:69"
  device: "/device:GPU:0"
  attr {
    key: "T"
    value {
      type: DT_FLOAT
    }
  }
  attr {
    key: "_output_shapes"
    value {
      list {
        shape {
          unknown_rank: true
        }
      }
    }
  }
}
node {
  name: "save/AssignVariableOp_69"
  op: "AssignVariableOp"
  input: "resnet_model/batch_normalization_8/gamma"
  input: "save/Identity_70"
  device: "/device:GPU:0"
  attr {
    key: "dtype"
    value {
      type: DT_FLOAT
    }
  }
}
node {
  name: "save/Identity_71"
  op: "Identity"
  input: "save/RestoreV2:70"
  device: "/device:GPU:0"
  attr {
    key: "T"
    value {
      type: DT_FLOAT
    }
  }
  attr {
    key: "_output_shapes"
    value {
      list {
        shape {
          unknown_rank: true
        }
      }
    }
  }
}
node {
  name: "save/AssignVariableOp_70"
  op: "AssignVariableOp"
  input: "resnet_model/batch_normalization_8/gamma/Momentum"
  input: "save/Identity_71"
  device: "/device:GPU:0"
  attr {
    key: "dtype"
    value {
      type: DT_FLOAT
    }
  }
}
node {
  name: "save/Identity_72"
  op: "Identity"
  input: "save/RestoreV2:71"
  device: "/device:GPU:0"
  attr {
    key: "T"
    value {
      type: DT_FLOAT
    }
  }
  attr {
    key: "_output_shapes"
    value {
      list {
        shape {
          unknown_rank: true
        }
      }
    }
  }
}
node {
  name: "save/AssignVariableOp_71"
  op: "AssignVariableOp"
  input: "resnet_model/batch_normalization_8/moving_mean"
  input: "save/Identity_72"
  device: "/device:GPU:0"
  attr {
    key: "dtype"
    value {
      type: DT_FLOAT
    }
  }
}
node {
  name: "save/Identity_73"
  op: "Identity"
  input: "save/RestoreV2:72"
  device: "/device:GPU:0"
  attr {
    key: "T"
    value {
      type: DT_FLOAT
    }
  }
  attr {
    key: "_output_shapes"
    value {
      list {
        shape {
          unknown_rank: true
        }
      }
    }
  }
}
node {
  name: "save/AssignVariableOp_72"
  op: "AssignVariableOp"
  input: "resnet_model/batch_normalization_8/moving_variance"
  input: "save/Identity_73"
  device: "/device:GPU:0"
  attr {
    key: "dtype"
    value {
      type: DT_FLOAT
    }
  }
}
node {
  name: "save/Identity_74"
  op: "Identity"
  input: "save/RestoreV2:73"
  device: "/device:GPU:0"
  attr {
    key: "T"
    value {
      type: DT_FLOAT
    }
  }
  attr {
    key: "_output_shapes"
    value {
      list {
        shape {
          unknown_rank: true
        }
      }
    }
  }
}
node {
  name: "save/AssignVariableOp_73"
  op: "AssignVariableOp"
  input: "resnet_model/batch_normalization_9/beta"
  input: "save/Identity_74"
  device: "/device:GPU:0"
  attr {
    key: "dtype"
    value {
      type: DT_FLOAT
    }
  }
}
node {
  name: "save/Identity_75"
  op: "Identity"
  input: "save/RestoreV2:74"
  device: "/device:GPU:0"
  attr {
    key: "T"
    value {
      type: DT_FLOAT
    }
  }
  attr {
    key: "_output_shapes"
    value {
      list {
        shape {
          unknown_rank: true
        }
      }
    }
  }
}
node {
  name: "save/AssignVariableOp_74"
  op: "AssignVariableOp"
  input: "resnet_model/batch_normalization_9/beta/Momentum"
  input: "save/Identity_75"
  device: "/device:GPU:0"
  attr {
    key: "dtype"
    value {
      type: DT_FLOAT
    }
  }
}
node {
  name: "save/Identity_76"
  op: "Identity"
  input: "save/RestoreV2:75"
  device: "/device:GPU:0"
  attr {
    key: "T"
    value {
      type: DT_FLOAT
    }
  }
  attr {
    key: "_output_shapes"
    value {
      list {
        shape {
          unknown_rank: true
        }
      }
    }
  }
}
node {
  name: "save/AssignVariableOp_75"
  op: "AssignVariableOp"
  input: "resnet_model/batch_normalization_9/gamma"
  input: "save/Identity_76"
  device: "/device:GPU:0"
  attr {
    key: "dtype"
    value {
      type: DT_FLOAT
    }
  }
}
node {
  name: "save/Identity_77"
  op: "Identity"
  input: "save/RestoreV2:76"
  device: "/device:GPU:0"
  attr {
    key: "T"
    value {
      type: DT_FLOAT
    }
  }
  attr {
    key: "_output_shapes"
    value {
      list {
        shape {
          unknown_rank: true
        }
      }
    }
  }
}
node {
  name: "save/AssignVariableOp_76"
  op: "AssignVariableOp"
  input: "resnet_model/batch_normalization_9/gamma/Momentum"
  input: "save/Identity_77"
  device: "/device:GPU:0"
  attr {
    key: "dtype"
    value {
      type: DT_FLOAT
    }
  }
}
node {
  name: "save/Identity_78"
  op: "Identity"
  input: "save/RestoreV2:77"
  device: "/device:GPU:0"
  attr {
    key: "T"
    value {
      type: DT_FLOAT
    }
  }
  attr {
    key: "_output_shapes"
    value {
      list {
        shape {
          unknown_rank: true
        }
      }
    }
  }
}
node {
  name: "save/AssignVariableOp_77"
  op: "AssignVariableOp"
  input: "resnet_model/batch_normalization_9/moving_mean"
  input: "save/Identity_78"
  device: "/device:GPU:0"
  attr {
    key: "dtype"
    value {
      type: DT_FLOAT
    }
  }
}
node {
  name: "save/Identity_79"
  op: "Identity"
  input: "save/RestoreV2:78"
  device: "/device:GPU:0"
  attr {
    key: "T"
    value {
      type: DT_FLOAT
    }
  }
  attr {
    key: "_output_shapes"
    value {
      list {
        shape {
          unknown_rank: true
        }
      }
    }
  }
}
node {
  name: "save/AssignVariableOp_78"
  op: "AssignVariableOp"
  input: "resnet_model/batch_normalization_9/moving_variance"
  input: "save/Identity_79"
  device: "/device:GPU:0"
  attr {
    key: "dtype"
    value {
      type: DT_FLOAT
    }
  }
}
node {
  name: "save/Identity_80"
  op: "Identity"
  input: "save/RestoreV2:79"
  device: "/device:GPU:0"
  attr {
    key: "T"
    value {
      type: DT_FLOAT
    }
  }
  attr {
    key: "_output_shapes"
    value {
      list {
        shape {
          unknown_rank: true
        }
      }
    }
  }
}
node {
  name: "save/AssignVariableOp_79"
  op: "AssignVariableOp"
  input: "resnet_model/conv2d/kernel"
  input: "save/Identity_80"
  device: "/device:GPU:0"
  attr {
    key: "dtype"
    value {
      type: DT_FLOAT
    }
  }
}
node {
  name: "save/Identity_81"
  op: "Identity"
  input: "save/RestoreV2:80"
  device: "/device:GPU:0"
  attr {
    key: "T"
    value {
      type: DT_FLOAT
    }
  }
  attr {
    key: "_output_shapes"
    value {
      list {
        shape {
          unknown_rank: true
        }
      }
    }
  }
}
node {
  name: "save/AssignVariableOp_80"
  op: "AssignVariableOp"
  input: "resnet_model/conv2d/kernel/Momentum"
  input: "save/Identity_81"
  device: "/device:GPU:0"
  attr {
    key: "dtype"
    value {
      type: DT_FLOAT
    }
  }
}
node {
  name: "save/Identity_82"
  op: "Identity"
  input: "save/RestoreV2:81"
  device: "/device:GPU:0"
  attr {
    key: "T"
    value {
      type: DT_FLOAT
    }
  }
  attr {
    key: "_output_shapes"
    value {
      list {
        shape {
          unknown_rank: true
        }
      }
    }
  }
}
node {
  name: "save/AssignVariableOp_81"
  op: "AssignVariableOp"
  input: "resnet_model/conv2d_1/kernel"
  input: "save/Identity_82"
  device: "/device:GPU:0"
  attr {
    key: "dtype"
    value {
      type: DT_FLOAT
    }
  }
}
node {
  name: "save/Identity_83"
  op: "Identity"
  input: "save/RestoreV2:82"
  device: "/device:GPU:0"
  attr {
    key: "T"
    value {
      type: DT_FLOAT
    }
  }
  attr {
    key: "_output_shapes"
    value {
      list {
        shape {
          unknown_rank: true
        }
      }
    }
  }
}
node {
  name: "save/AssignVariableOp_82"
  op: "AssignVariableOp"
  input: "resnet_model/conv2d_1/kernel/Momentum"
  input: "save/Identity_83"
  device: "/device:GPU:0"
  attr {
    key: "dtype"
    value {
      type: DT_FLOAT
    }
  }
}
node {
  name: "save/Identity_84"
  op: "Identity"
  input: "save/RestoreV2:83"
  device: "/device:GPU:0"
  attr {
    key: "T"
    value {
      type: DT_FLOAT
    }
  }
  attr {
    key: "_output_shapes"
    value {
      list {
        shape {
          unknown_rank: true
        }
      }
    }
  }
}
node {
  name: "save/AssignVariableOp_83"
  op: "AssignVariableOp"
  input: "resnet_model/conv2d_10/kernel"
  input: "save/Identity_84"
  device: "/device:GPU:0"
  attr {
    key: "dtype"
    value {
      type: DT_FLOAT
    }
  }
}
node {
  name: "save/Identity_85"
  op: "Identity"
  input: "save/RestoreV2:84"
  device: "/device:GPU:0"
  attr {
    key: "T"
    value {
      type: DT_FLOAT
    }
  }
  attr {
    key: "_output_shapes"
    value {
      list {
        shape {
          unknown_rank: true
        }
      }
    }
  }
}
node {
  name: "save/AssignVariableOp_84"
  op: "AssignVariableOp"
  input: "resnet_model/conv2d_10/kernel/Momentum"
  input: "save/Identity_85"
  device: "/device:GPU:0"
  attr {
    key: "dtype"
    value {
      type: DT_FLOAT
    }
  }
}
node {
  name: "save/Identity_86"
  op: "Identity"
  input: "save/RestoreV2:85"
  device: "/device:GPU:0"
  attr {
    key: "T"
    value {
      type: DT_FLOAT
    }
  }
  attr {
    key: "_output_shapes"
    value {
      list {
        shape {
          unknown_rank: true
        }
      }
    }
  }
}
node {
  name: "save/AssignVariableOp_85"
  op: "AssignVariableOp"
  input: "resnet_model/conv2d_11/kernel"
  input: "save/Identity_86"
  device: "/device:GPU:0"
  attr {
    key: "dtype"
    value {
      type: DT_FLOAT
    }
  }
}
node {
  name: "save/Identity_87"
  op: "Identity"
  input: "save/RestoreV2:86"
  device: "/device:GPU:0"
  attr {
    key: "T"
    value {
      type: DT_FLOAT
    }
  }
  attr {
    key: "_output_shapes"
    value {
      list {
        shape {
          unknown_rank: true
        }
      }
    }
  }
}
node {
  name: "save/AssignVariableOp_86"
  op: "AssignVariableOp"
  input: "resnet_model/conv2d_11/kernel/Momentum"
  input: "save/Identity_87"
  device: "/device:GPU:0"
  attr {
    key: "dtype"
    value {
      type: DT_FLOAT
    }
  }
}
node {
  name: "save/Identity_88"
  op: "Identity"
  input: "save/RestoreV2:87"
  device: "/device:GPU:0"
  attr {
    key: "T"
    value {
      type: DT_FLOAT
    }
  }
  attr {
    key: "_output_shapes"
    value {
      list {
        shape {
          unknown_rank: true
        }
      }
    }
  }
}
node {
  name: "save/AssignVariableOp_87"
  op: "AssignVariableOp"
  input: "resnet_model/conv2d_12/kernel"
  input: "save/Identity_88"
  device: "/device:GPU:0"
  attr {
    key: "dtype"
    value {
      type: DT_FLOAT
    }
  }
}
node {
  name: "save/Identity_89"
  op: "Identity"
  input: "save/RestoreV2:88"
  device: "/device:GPU:0"
  attr {
    key: "T"
    value {
      type: DT_FLOAT
    }
  }
  attr {
    key: "_output_shapes"
    value {
      list {
        shape {
          unknown_rank: true
        }
      }
    }
  }
}
node {
  name: "save/AssignVariableOp_88"
  op: "AssignVariableOp"
  input: "resnet_model/conv2d_12/kernel/Momentum"
  input: "save/Identity_89"
  device: "/device:GPU:0"
  attr {
    key: "dtype"
    value {
      type: DT_FLOAT
    }
  }
}
node {
  name: "save/Identity_90"
  op: "Identity"
  input: "save/RestoreV2:89"
  device: "/device:GPU:0"
  attr {
    key: "T"
    value {
      type: DT_FLOAT
    }
  }
  attr {
    key: "_output_shapes"
    value {
      list {
        shape {
          unknown_rank: true
        }
      }
    }
  }
}
node {
  name: "save/AssignVariableOp_89"
  op: "AssignVariableOp"
  input: "resnet_model/conv2d_13/kernel"
  input: "save/Identity_90"
  device: "/device:GPU:0"
  attr {
    key: "dtype"
    value {
      type: DT_FLOAT
    }
  }
}
node {
  name: "save/Identity_91"
  op: "Identity"
  input: "save/RestoreV2:90"
  device: "/device:GPU:0"
  attr {
    key: "T"
    value {
      type: DT_FLOAT
    }
  }
  attr {
    key: "_output_shapes"
    value {
      list {
        shape {
          unknown_rank: true
        }
      }
    }
  }
}
node {
  name: "save/AssignVariableOp_90"
  op: "AssignVariableOp"
  input: "resnet_model/conv2d_13/kernel/Momentum"
  input: "save/Identity_91"
  device: "/device:GPU:0"
  attr {
    key: "dtype"
    value {
      type: DT_FLOAT
    }
  }
}
node {
  name: "save/Identity_92"
  op: "Identity"
  input: "save/RestoreV2:91"
  device: "/device:GPU:0"
  attr {
    key: "T"
    value {
      type: DT_FLOAT
    }
  }
  attr {
    key: "_output_shapes"
    value {
      list {
        shape {
          unknown_rank: true
        }
      }
    }
  }
}
node {
  name: "save/AssignVariableOp_91"
  op: "AssignVariableOp"
  input: "resnet_model/conv2d_14/kernel"
  input: "save/Identity_92"
  device: "/device:GPU:0"
  attr {
    key: "dtype"
    value {
      type: DT_FLOAT
    }
  }
}
node {
  name: "save/Identity_93"
  op: "Identity"
  input: "save/RestoreV2:92"
  device: "/device:GPU:0"
  attr {
    key: "T"
    value {
      type: DT_FLOAT
    }
  }
  attr {
    key: "_output_shapes"
    value {
      list {
        shape {
          unknown_rank: true
        }
      }
    }
  }
}
node {
  name: "save/AssignVariableOp_92"
  op: "AssignVariableOp"
  input: "resnet_model/conv2d_14/kernel/Momentum"
  input: "save/Identity_93"
  device: "/device:GPU:0"
  attr {
    key: "dtype"
    value {
      type: DT_FLOAT
    }
  }
}
node {
  name: "save/Identity_94"
  op: "Identity"
  input: "save/RestoreV2:93"
  device: "/device:GPU:0"
  attr {
    key: "T"
    value {
      type: DT_FLOAT
    }
  }
  attr {
    key: "_output_shapes"
    value {
      list {
        shape {
          unknown_rank: true
        }
      }
    }
  }
}
node {
  name: "save/AssignVariableOp_93"
  op: "AssignVariableOp"
  input: "resnet_model/conv2d_15/kernel"
  input: "save/Identity_94"
  device: "/device:GPU:0"
  attr {
    key: "dtype"
    value {
      type: DT_FLOAT
    }
  }
}
node {
  name: "save/Identity_95"
  op: "Identity"
  input: "save/RestoreV2:94"
  device: "/device:GPU:0"
  attr {
    key: "T"
    value {
      type: DT_FLOAT
    }
  }
  attr {
    key: "_output_shapes"
    value {
      list {
        shape {
          unknown_rank: true
        }
      }
    }
  }
}
node {
  name: "save/AssignVariableOp_94"
  op: "AssignVariableOp"
  input: "resnet_model/conv2d_15/kernel/Momentum"
  input: "save/Identity_95"
  device: "/device:GPU:0"
  attr {
    key: "dtype"
    value {
      type: DT_FLOAT
    }
  }
}
node {
  name: "save/Identity_96"
  op: "Identity"
  input: "save/RestoreV2:95"
  device: "/device:GPU:0"
  attr {
    key: "T"
    value {
      type: DT_FLOAT
    }
  }
  attr {
    key: "_output_shapes"
    value {
      list {
        shape {
          unknown_rank: true
        }
      }
    }
  }
}
node {
  name: "save/AssignVariableOp_95"
  op: "AssignVariableOp"
  input: "resnet_model/conv2d_2/kernel"
  input: "save/Identity_96"
  device: "/device:GPU:0"
  attr {
    key: "dtype"
    value {
      type: DT_FLOAT
    }
  }
}
node {
  name: "save/Identity_97"
  op: "Identity"
  input: "save/RestoreV2:96"
  device: "/device:GPU:0"
  attr {
    key: "T"
    value {
      type: DT_FLOAT
    }
  }
  attr {
    key: "_output_shapes"
    value {
      list {
        shape {
          unknown_rank: true
        }
      }
    }
  }
}
node {
  name: "save/AssignVariableOp_96"
  op: "AssignVariableOp"
  input: "resnet_model/conv2d_2/kernel/Momentum"
  input: "save/Identity_97"
  device: "/device:GPU:0"
  attr {
    key: "dtype"
    value {
      type: DT_FLOAT
    }
  }
}
node {
  name: "save/Identity_98"
  op: "Identity"
  input: "save/RestoreV2:97"
  device: "/device:GPU:0"
  attr {
    key: "T"
    value {
      type: DT_FLOAT
    }
  }
  attr {
    key: "_output_shapes"
    value {
      list {
        shape {
          unknown_rank: true
        }
      }
    }
  }
}
node {
  name: "save/AssignVariableOp_97"
  op: "AssignVariableOp"
  input: "resnet_model/conv2d_3/kernel"
  input: "save/Identity_98"
  device: "/device:GPU:0"
  attr {
    key: "dtype"
    value {
      type: DT_FLOAT
    }
  }
}
node {
  name: "save/Identity_99"
  op: "Identity"
  input: "save/RestoreV2:98"
  device: "/device:GPU:0"
  attr {
    key: "T"
    value {
      type: DT_FLOAT
    }
  }
  attr {
    key: "_output_shapes"
    value {
      list {
        shape {
          unknown_rank: true
        }
      }
    }
  }
}
node {
  name: "save/AssignVariableOp_98"
  op: "AssignVariableOp"
  input: "resnet_model/conv2d_3/kernel/Momentum"
  input: "save/Identity_99"
  device: "/device:GPU:0"
  attr {
    key: "dtype"
    value {
      type: DT_FLOAT
    }
  }
}
node {
  name: "save/Identity_100"
  op: "Identity"
  input: "save/RestoreV2:99"
  device: "/device:GPU:0"
  attr {
    key: "T"
    value {
      type: DT_FLOAT
    }
  }
  attr {
    key: "_output_shapes"
    value {
      list {
        shape {
          unknown_rank: true
        }
      }
    }
  }
}
node {
  name: "save/AssignVariableOp_99"
  op: "AssignVariableOp"
  input: "resnet_model/conv2d_4/kernel"
  input: "save/Identity_100"
  device: "/device:GPU:0"
  attr {
    key: "dtype"
    value {
      type: DT_FLOAT
    }
  }
}
node {
  name: "save/Identity_101"
  op: "Identity"
  input: "save/RestoreV2:100"
  device: "/device:GPU:0"
  attr {
    key: "T"
    value {
      type: DT_FLOAT
    }
  }
  attr {
    key: "_output_shapes"
    value {
      list {
        shape {
          unknown_rank: true
        }
      }
    }
  }
}
node {
  name: "save/AssignVariableOp_100"
  op: "AssignVariableOp"
  input: "resnet_model/conv2d_4/kernel/Momentum"
  input: "save/Identity_101"
  device: "/device:GPU:0"
  attr {
    key: "dtype"
    value {
      type: DT_FLOAT
    }
  }
}
node {
  name: "save/Identity_102"
  op: "Identity"
  input: "save/RestoreV2:101"
  device: "/device:GPU:0"
  attr {
    key: "T"
    value {
      type: DT_FLOAT
    }
  }
  attr {
    key: "_output_shapes"
    value {
      list {
        shape {
          unknown_rank: true
        }
      }
    }
  }
}
node {
  name: "save/AssignVariableOp_101"
  op: "AssignVariableOp"
  input: "resnet_model/conv2d_5/kernel"
  input: "save/Identity_102"
  device: "/device:GPU:0"
  attr {
    key: "dtype"
    value {
      type: DT_FLOAT
    }
  }
}
node {
  name: "save/Identity_103"
  op: "Identity"
  input: "save/RestoreV2:102"
  device: "/device:GPU:0"
  attr {
    key: "T"
    value {
      type: DT_FLOAT
    }
  }
  attr {
    key: "_output_shapes"
    value {
      list {
        shape {
          unknown_rank: true
        }
      }
    }
  }
}
node {
  name: "save/AssignVariableOp_102"
  op: "AssignVariableOp"
  input: "resnet_model/conv2d_5/kernel/Momentum"
  input: "save/Identity_103"
  device: "/device:GPU:0"
  attr {
    key: "dtype"
    value {
      type: DT_FLOAT
    }
  }
}
node {
  name: "save/Identity_104"
  op: "Identity"
  input: "save/RestoreV2:103"
  device: "/device:GPU:0"
  attr {
    key: "T"
    value {
      type: DT_FLOAT
    }
  }
  attr {
    key: "_output_shapes"
    value {
      list {
        shape {
          unknown_rank: true
        }
      }
    }
  }
}
node {
  name: "save/AssignVariableOp_103"
  op: "AssignVariableOp"
  input: "resnet_model/conv2d_6/kernel"
  input: "save/Identity_104"
  device: "/device:GPU:0"
  attr {
    key: "dtype"
    value {
      type: DT_FLOAT
    }
  }
}
node {
  name: "save/Identity_105"
  op: "Identity"
  input: "save/RestoreV2:104"
  device: "/device:GPU:0"
  attr {
    key: "T"
    value {
      type: DT_FLOAT
    }
  }
  attr {
    key: "_output_shapes"
    value {
      list {
        shape {
          unknown_rank: true
        }
      }
    }
  }
}
node {
  name: "save/AssignVariableOp_104"
  op: "AssignVariableOp"
  input: "resnet_model/conv2d_6/kernel/Momentum"
  input: "save/Identity_105"
  device: "/device:GPU:0"
  attr {
    key: "dtype"
    value {
      type: DT_FLOAT
    }
  }
}
node {
  name: "save/Identity_106"
  op: "Identity"
  input: "save/RestoreV2:105"
  device: "/device:GPU:0"
  attr {
    key: "T"
    value {
      type: DT_FLOAT
    }
  }
  attr {
    key: "_output_shapes"
    value {
      list {
        shape {
          unknown_rank: true
        }
      }
    }
  }
}
node {
  name: "save/AssignVariableOp_105"
  op: "AssignVariableOp"
  input: "resnet_model/conv2d_7/kernel"
  input: "save/Identity_106"
  device: "/device:GPU:0"
  attr {
    key: "dtype"
    value {
      type: DT_FLOAT
    }
  }
}
node {
  name: "save/Identity_107"
  op: "Identity"
  input: "save/RestoreV2:106"
  device: "/device:GPU:0"
  attr {
    key: "T"
    value {
      type: DT_FLOAT
    }
  }
  attr {
    key: "_output_shapes"
    value {
      list {
        shape {
          unknown_rank: true
        }
      }
    }
  }
}
node {
  name: "save/AssignVariableOp_106"
  op: "AssignVariableOp"
  input: "resnet_model/conv2d_7/kernel/Momentum"
  input: "save/Identity_107"
  device: "/device:GPU:0"
  attr {
    key: "dtype"
    value {
      type: DT_FLOAT
    }
  }
}
node {
  name: "save/Identity_108"
  op: "Identity"
  input: "save/RestoreV2:107"
  device: "/device:GPU:0"
  attr {
    key: "T"
    value {
      type: DT_FLOAT
    }
  }
  attr {
    key: "_output_shapes"
    value {
      list {
        shape {
          unknown_rank: true
        }
      }
    }
  }
}
node {
  name: "save/AssignVariableOp_107"
  op: "AssignVariableOp"
  input: "resnet_model/conv2d_8/kernel"
  input: "save/Identity_108"
  device: "/device:GPU:0"
  attr {
    key: "dtype"
    value {
      type: DT_FLOAT
    }
  }
}
node {
  name: "save/Identity_109"
  op: "Identity"
  input: "save/RestoreV2:108"
  device: "/device:GPU:0"
  attr {
    key: "T"
    value {
      type: DT_FLOAT
    }
  }
  attr {
    key: "_output_shapes"
    value {
      list {
        shape {
          unknown_rank: true
        }
      }
    }
  }
}
node {
  name: "save/AssignVariableOp_108"
  op: "AssignVariableOp"
  input: "resnet_model/conv2d_8/kernel/Momentum"
  input: "save/Identity_109"
  device: "/device:GPU:0"
  attr {
    key: "dtype"
    value {
      type: DT_FLOAT
    }
  }
}
node {
  name: "save/Identity_110"
  op: "Identity"
  input: "save/RestoreV2:109"
  device: "/device:GPU:0"
  attr {
    key: "T"
    value {
      type: DT_FLOAT
    }
  }
  attr {
    key: "_output_shapes"
    value {
      list {
        shape {
          unknown_rank: true
        }
      }
    }
  }
}
node {
  name: "save/AssignVariableOp_109"
  op: "AssignVariableOp"
  input: "resnet_model/conv2d_9/kernel"
  input: "save/Identity_110"
  device: "/device:GPU:0"
  attr {
    key: "dtype"
    value {
      type: DT_FLOAT
    }
  }
}
node {
  name: "save/Identity_111"
  op: "Identity"
  input: "save/RestoreV2:110"
  device: "/device:GPU:0"
  attr {
    key: "T"
    value {
      type: DT_FLOAT
    }
  }
  attr {
    key: "_output_shapes"
    value {
      list {
        shape {
          unknown_rank: true
        }
      }
    }
  }
}
node {
  name: "save/AssignVariableOp_110"
  op: "AssignVariableOp"
  input: "resnet_model/conv2d_9/kernel/Momentum"
  input: "save/Identity_111"
  device: "/device:GPU:0"
  attr {
    key: "dtype"
    value {
      type: DT_FLOAT
    }
  }
}
node {
  name: "save/Identity_112"
  op: "Identity"
  input: "save/RestoreV2:111"
  device: "/device:GPU:0"
  attr {
    key: "T"
    value {
      type: DT_FLOAT
    }
  }
  attr {
    key: "_output_shapes"
    value {
      list {
        shape {
          unknown_rank: true
        }
      }
    }
  }
}
node {
  name: "save/AssignVariableOp_111"
  op: "AssignVariableOp"
  input: "resnet_model/dense/bias"
  input: "save/Identity_112"
  device: "/device:GPU:0"
  attr {
    key: "dtype"
    value {
      type: DT_FLOAT
    }
  }
}
node {
  name: "save/Identity_113"
  op: "Identity"
  input: "save/RestoreV2:112"
  device: "/device:GPU:0"
  attr {
    key: "T"
    value {
      type: DT_FLOAT
    }
  }
  attr {
    key: "_output_shapes"
    value {
      list {
        shape {
          unknown_rank: true
        }
      }
    }
  }
}
node {
  name: "save/AssignVariableOp_112"
  op: "AssignVariableOp"
  input: "resnet_model/dense/bias/Momentum"
  input: "save/Identity_113"
  device: "/device:GPU:0"
  attr {
    key: "dtype"
    value {
      type: DT_FLOAT
    }
  }
}
node {
  name: "save/Identity_114"
  op: "Identity"
  input: "save/RestoreV2:113"
  device: "/device:GPU:0"
  attr {
    key: "T"
    value {
      type: DT_FLOAT
    }
  }
  attr {
    key: "_output_shapes"
    value {
      list {
        shape {
          unknown_rank: true
        }
      }
    }
  }
}
node {
  name: "save/AssignVariableOp_113"
  op: "AssignVariableOp"
  input: "resnet_model/dense/kernel"
  input: "save/Identity_114"
  device: "/device:GPU:0"
  attr {
    key: "dtype"
    value {
      type: DT_FLOAT
    }
  }
}
node {
  name: "save/Identity_115"
  op: "Identity"
  input: "save/RestoreV2:114"
  device: "/device:GPU:0"
  attr {
    key: "T"
    value {
      type: DT_FLOAT
    }
  }
  attr {
    key: "_output_shapes"
    value {
      list {
        shape {
          unknown_rank: true
        }
      }
    }
  }
}
node {
  name: "save/AssignVariableOp_114"
  op: "AssignVariableOp"
  input: "resnet_model/dense/kernel/Momentum"
  input: "save/Identity_115"
  device: "/device:GPU:0"
  attr {
    key: "dtype"
    value {
      type: DT_FLOAT
    }
  }
}
node {
  name: "save/restore_shard"
  op: "NoOp"
  input: "^save/AssignVariableOp"
  input: "^save/AssignVariableOp_1"
  input: "^save/AssignVariableOp_10"
  input: "^save/AssignVariableOp_100"
  input: "^save/AssignVariableOp_101"
  input: "^save/AssignVariableOp_102"
  input: "^save/AssignVariableOp_103"
  input: "^save/AssignVariableOp_104"
  input: "^save/AssignVariableOp_105"
  input: "^save/AssignVariableOp_106"
  input: "^save/AssignVariableOp_107"
  input: "^save/AssignVariableOp_108"
  input: "^save/AssignVariableOp_109"
  input: "^save/AssignVariableOp_11"
  input: "^save/AssignVariableOp_110"
  input: "^save/AssignVariableOp_111"
  input: "^save/AssignVariableOp_112"
  input: "^save/AssignVariableOp_113"
  input: "^save/AssignVariableOp_114"
  input: "^save/AssignVariableOp_12"
  input: "^save/AssignVariableOp_13"
  input: "^save/AssignVariableOp_14"
  input: "^save/AssignVariableOp_15"
  input: "^save/AssignVariableOp_16"
  input: "^save/AssignVariableOp_17"
  input: "^save/AssignVariableOp_18"
  input: "^save/AssignVariableOp_19"
  input: "^save/AssignVariableOp_2"
  input: "^save/AssignVariableOp_20"
  input: "^save/AssignVariableOp_21"
  input: "^save/AssignVariableOp_22"
  input: "^save/AssignVariableOp_23"
  input: "^save/AssignVariableOp_24"
  input: "^save/AssignVariableOp_25"
  input: "^save/AssignVariableOp_26"
  input: "^save/AssignVariableOp_27"
  input: "^save/AssignVariableOp_28"
  input: "^save/AssignVariableOp_29"
  input: "^save/AssignVariableOp_3"
  input: "^save/AssignVariableOp_30"
  input: "^save/AssignVariableOp_31"
  input: "^save/AssignVariableOp_32"
  input: "^save/AssignVariableOp_33"
  input: "^save/AssignVariableOp_34"
  input: "^save/AssignVariableOp_35"
  input: "^save/AssignVariableOp_36"
  input: "^save/AssignVariableOp_37"
  input: "^save/AssignVariableOp_38"
  input: "^save/AssignVariableOp_39"
  input: "^save/AssignVariableOp_4"
  input: "^save/AssignVariableOp_40"
  input: "^save/AssignVariableOp_41"
  input: "^save/AssignVariableOp_42"
  input: "^save/AssignVariableOp_43"
  input: "^save/AssignVariableOp_44"
  input: "^save/AssignVariableOp_45"
  input: "^save/AssignVariableOp_46"
  input: "^save/AssignVariableOp_47"
  input: "^save/AssignVariableOp_48"
  input: "^save/AssignVariableOp_49"
  input: "^save/AssignVariableOp_5"
  input: "^save/AssignVariableOp_50"
  input: "^save/AssignVariableOp_51"
  input: "^save/AssignVariableOp_52"
  input: "^save/AssignVariableOp_53"
  input: "^save/AssignVariableOp_54"
  input: "^save/AssignVariableOp_55"
  input: "^save/AssignVariableOp_56"
  input: "^save/AssignVariableOp_57"
  input: "^save/AssignVariableOp_58"
  input: "^save/AssignVariableOp_59"
  input: "^save/AssignVariableOp_6"
  input: "^save/AssignVariableOp_60"
  input: "^save/AssignVariableOp_61"
  input: "^save/AssignVariableOp_62"
  input: "^save/AssignVariableOp_63"
  input: "^save/AssignVariableOp_64"
  input: "^save/AssignVariableOp_65"
  input: "^save/AssignVariableOp_66"
  input: "^save/AssignVariableOp_67"
  input: "^save/AssignVariableOp_68"
  input: "^save/AssignVariableOp_69"
  input: "^save/AssignVariableOp_7"
  input: "^save/AssignVariableOp_70"
  input: "^save/AssignVariableOp_71"
  input: "^save/AssignVariableOp_72"
  input: "^save/AssignVariableOp_73"
  input: "^save/AssignVariableOp_74"
  input: "^save/AssignVariableOp_75"
  input: "^save/AssignVariableOp_76"
  input: "^save/AssignVariableOp_77"
  input: "^save/AssignVariableOp_78"
  input: "^save/AssignVariableOp_79"
  input: "^save/AssignVariableOp_8"
  input: "^save/AssignVariableOp_80"
  input: "^save/AssignVariableOp_81"
  input: "^save/AssignVariableOp_82"
  input: "^save/AssignVariableOp_83"
  input: "^save/AssignVariableOp_84"
  input: "^save/AssignVariableOp_85"
  input: "^save/AssignVariableOp_86"
  input: "^save/AssignVariableOp_87"
  input: "^save/AssignVariableOp_88"
  input: "^save/AssignVariableOp_89"
  input: "^save/AssignVariableOp_9"
  input: "^save/AssignVariableOp_90"
  input: "^save/AssignVariableOp_91"
  input: "^save/AssignVariableOp_92"
  input: "^save/AssignVariableOp_93"
  input: "^save/AssignVariableOp_94"
  input: "^save/AssignVariableOp_95"
  input: "^save/AssignVariableOp_96"
  input: "^save/AssignVariableOp_97"
  input: "^save/AssignVariableOp_98"
  input: "^save/AssignVariableOp_99"
  device: "/device:GPU:0"
}
node {
  name: "save/restore_all"
  op: "NoOp"
  input: "^save/restore_shard"
  device: "/device:GPU:0"
}
library {
  function {
    signature {
      name: "tf_data_structured_function_wrapper_52oRgbbAY9U"
      input_arg {
        name: "arg0"
        type: DT_STRING
      }
      output_arg {
        name: "tfrecorddataset"
        type: DT_VARIANT
      }
      description: "Wrapper for passing nested structures to and from tf.data functions."
      is_stateful: true
    }
    node_def {
      name: "compression_type"
      op: "Const"
      device: "/device:CPU:0"
      attr {
        key: "dtype"
        value {
          type: DT_STRING
        }
      }
      attr {
        key: "value"
        value {
          tensor {
            dtype: DT_STRING
            tensor_shape {
            }
            string_val: ""
          }
        }
      }
    }
    node_def {
      name: "buffer_size"
      op: "Const"
      device: "/device:CPU:0"
      attr {
        key: "dtype"
        value {
          type: DT_INT64
        }
      }
      attr {
        key: "value"
        value {
          tensor {
            dtype: DT_INT64
            tensor_shape {
            }
            int64_val: 262144
          }
        }
      }
    }
    node_def {
      name: "TFRecordDataset"
      op: "TFRecordDataset"
      input: "arg0"
      input: "compression_type:output:0"
      input: "buffer_size:output:0"
      device: "/device:CPU:0"
    }
    ret {
      key: "tfrecorddataset"
      value: "TFRecordDataset:handle:0"
    }
  }
  function {
    signature {
      name: "tf_data_structured_function_wrapper_9nCWKPbqe6Q"
      input_arg {
        name: "arg0"
        type: DT_STRING
      }
      output_arg {
        name: "cast"
        type: DT_FLOAT
      }
      output_arg {
        name: "cast_1"
        type: DT_INT32
      }
      description: "Wrapper for passing nested structures to and from tf.data functions."
    }
    node_def {
      name: "ParseSingleExample/Const"
      op: "Const"
      device: "/device:CPU:0"
      attr {
        key: "dtype"
        value {
          type: DT_STRING
        }
      }
      attr {
        key: "value"
        value {
          tensor {
            dtype: DT_STRING
            tensor_shape {
              dim {
              }
            }
          }
        }
      }
    }
    node_def {
      name: "ParseSingleExample/Const_1"
      op: "Const"
      device: "/device:CPU:0"
      attr {
        key: "dtype"
        value {
          type: DT_INT64
        }
      }
      attr {
        key: "value"
        value {
          tensor {
            dtype: DT_INT64
            tensor_shape {
              dim {
              }
            }
          }
        }
      }
    }
    node_def {
      name: "ParseSingleExample/Const_2"
      op: "Const"
      device: "/device:CPU:0"
      attr {
        key: "dtype"
        value {
          type: DT_INT64
        }
      }
      attr {
        key: "value"
        value {
          tensor {
            dtype: DT_INT64
            tensor_shape {
              dim {
              }
            }
          }
        }
      }
    }
    node_def {
      name: "ParseSingleExample/Const_3"
      op: "Const"
      device: "/device:CPU:0"
      attr {
        key: "dtype"
        value {
          type: DT_INT64
        }
      }
      attr {
        key: "value"
        value {
          tensor {
            dtype: DT_INT64
            tensor_shape {
              dim {
              }
            }
          }
        }
      }
    }
    node_def {
      name: "ParseSingleExample/Const_4"
      op: "Const"
      device: "/device:CPU:0"
      attr {
        key: "dtype"
        value {
          type: DT_INT64
        }
      }
      attr {
        key: "value"
        value {
          tensor {
            dtype: DT_INT64
            tensor_shape {
              dim {
              }
            }
          }
        }
      }
    }
    node_def {
      name: "ParseSingleExample/ParseSingleExample"
      op: "ParseSingleExample"
      input: "arg0"
      input: "ParseSingleExample/Const:output:0"
      input: "ParseSingleExample/Const_1:output:0"
      input: "ParseSingleExample/Const_2:output:0"
      input: "ParseSingleExample/Const_3:output:0"
      input: "ParseSingleExample/Const_4:output:0"
      device: "/device:CPU:0"
      attr {
        key: "Tdense"
        value {
          list {
            type: DT_STRING
            type: DT_INT64
            type: DT_INT64
            type: DT_INT64
            type: DT_INT64
          }
        }
      }
      attr {
        key: "dense_keys"
        value {
          list {
            s: "img"
            s: "label0"
            s: "label1"
            s: "label2"
            s: "label3"
          }
        }
      }
      attr {
        key: "dense_shapes"
        value {
          list {
            shape {
            }
            shape {
            }
            shape {
            }
            shape {
            }
            shape {
            }
          }
        }
      }
      attr {
        key: "num_sparse"
        value {
          i: 0
        }
      }
      attr {
        key: "sparse_keys"
        value {
          list {
          }
        }
      }
      attr {
        key: "sparse_types"
        value {
          list {
          }
        }
      }
    }
    node_def {
      name: "DecodeRaw"
      op: "DecodeRaw"
      input: "ParseSingleExample/ParseSingleExample:dense_values:0"
      device: "/device:CPU:0"
      attr {
        key: "little_endian"
        value {
          b: true
        }
      }
      attr {
        key: "out_type"
        value {
          type: DT_UINT8
        }
      }
    }
    node_def {
      name: "Reshape/shape"
      op: "Const"
      device: "/device:CPU:0"
      attr {
        key: "dtype"
        value {
          type: DT_INT32
        }
      }
      attr {
        key: "value"
        value {
          tensor {
            dtype: DT_INT32
            tensor_shape {
              dim {
                size: 3
              }
            }
            tensor_content: "\000\002\000\000\000\002\000\000\001\000\000\000"
          }
        }
      }
    }
    node_def {
      name: "Reshape"
      op: "Reshape"
      input: "DecodeRaw:output:0"
      input: "Reshape/shape:output:0"
      device: "/device:CPU:0"
      attr {
        key: "T"
        value {
          type: DT_UINT8
        }
      }
      attr {
        key: "Tshape"
        value {
          type: DT_INT32
        }
      }
    }
    node_def {
      name: "transpose/perm"
      op: "Const"
      device: "/device:CPU:0"
      attr {
        key: "dtype"
        value {
          type: DT_INT32
        }
      }
      attr {
        key: "value"
        value {
          tensor {
            dtype: DT_INT32
            tensor_shape {
              dim {
                size: 3
              }
            }
            tensor_content: "\001\000\000\000\002\000\000\000\000\000\000\000"
          }
        }
      }
    }
    node_def {
      name: "transpose"
      op: "Transpose"
      input: "Reshape:output:0"
      input: "transpose/perm:output:0"
      device: "/device:CPU:0"
      attr {
        key: "T"
        value {
          type: DT_UINT8
        }
      }
      attr {
        key: "Tperm"
        value {
          type: DT_INT32
        }
      }
    }
    node_def {
      name: "Cast"
      op: "Cast"
      input: "transpose:y:0"
      device: "/device:CPU:0"
      attr {
        key: "DstT"
        value {
          type: DT_FLOAT
        }
      }
      attr {
        key: "SrcT"
        value {
          type: DT_UINT8
        }
      }
      attr {
        key: "Truncate"
        value {
          b: false
        }
      }
    }
    node_def {
      name: "stack"
      op: "Pack"
      input: "ParseSingleExample/ParseSingleExample:dense_values:1"
      input: "ParseSingleExample/ParseSingleExample:dense_values:2"
      input: "ParseSingleExample/ParseSingleExample:dense_values:3"
      input: "ParseSingleExample/ParseSingleExample:dense_values:4"
      device: "/device:CPU:0"
      attr {
        key: "N"
        value {
          i: 4
        }
      }
      attr {
        key: "T"
        value {
          type: DT_INT64
        }
      }
      attr {
        key: "axis"
        value {
          i: 0
        }
      }
    }
    node_def {
      name: "Cast_1"
      op: "Cast"
      input: "stack:output:0"
      device: "/device:CPU:0"
      attr {
        key: "DstT"
        value {
          type: DT_INT32
        }
      }
      attr {
        key: "SrcT"
        value {
          type: DT_INT64
        }
      }
      attr {
        key: "Truncate"
        value {
          b: false
        }
      }
    }
    ret {
      key: "cast"
      value: "Cast:y:0"
    }
    ret {
      key: "cast_1"
      value: "Cast_1:y:0"
    }
  }
  function {
    signature {
      name: "_prefetch_fn_hYCgXauBi0A"
      input_arg {
        name: "handle"
        type: DT_STRING
      }
      output_arg {
        name: "iteratorgetnext"
        type: DT_FLOAT
      }
      output_arg {
        name: "iteratorgetnext_0"
        type: DT_INT32
      }
      description: "Prefetches one element from `input_iterator`."
      is_stateful: true
    }
    node_def {
      name: "IteratorFromStringHandleV2"
      op: "IteratorFromStringHandleV2"
      input: "handle"
      device: "/device:GPU:0"
      attr {
        key: "output_shapes"
        value {
          list {
            shape {
              dim {
                size: -1
              }
              dim {
                size: 512
              }
              dim {
                size: 1
              }
              dim {
                size: 512
              }
            }
            shape {
              dim {
                size: -1
              }
              dim {
                size: 4
              }
            }
          }
        }
      }
      attr {
        key: "output_types"
        value {
          list {
            type: DT_FLOAT
            type: DT_INT32
          }
        }
      }
    }
    node_def {
      name: "IteratorToStringHandle"
      op: "IteratorToStringHandle"
      input: "IteratorFromStringHandleV2:resource_handle:0"
      device: "/device:GPU:0"
    }
    node_def {
      name: "IteratorGetNext"
      op: "IteratorGetNext"
      input: "IteratorFromStringHandleV2:resource_handle:0"
      device: "/device:GPU:0"
      attr {
        key: "output_shapes"
        value {
          list {
            shape {
              dim {
                size: -1
              }
              dim {
                size: 512
              }
              dim {
                size: 1
              }
              dim {
                size: 512
              }
            }
            shape {
              dim {
                size: -1
              }
              dim {
                size: 4
              }
            }
          }
        }
      }
      attr {
        key: "output_types"
        value {
          list {
            type: DT_FLOAT
            type: DT_INT32
          }
        }
      }
    }
    ret {
      key: "iteratorgetnext"
      value: "IteratorGetNext:components:0"
    }
    ret {
      key: "iteratorgetnext_0"
      value: "IteratorGetNext:components:1"
    }
  }
}
versions {
  producer: 27
  min_consumer: 12
}
